models/f1_a2c_final.pth (torch, 156313 bytes, 11 tensors)

0.weight f4 [128, 15]
00000000: bc20 2f3e 7994 9abd 4f92 463e 14bb 073d
00000010: bf9c 0abe 34e1 c13d 4fa6 0d3c 095c 70be
00000020: 7563 a93d 0cb5 363e f61d 0c3e 6d57 87bd
00000030: 9e54 863e 1f3c 0ebe 0ed2 a2bd 5699 45be
00000040: 2f67 843e 8af0 433e 016d aa3d b3e7 9cbd
00000050: e799 563e 073e fb3c 3493 12bd a9ae 703d
00000060: 170b 643d 5608 0ebe 1a30 0fbe 4a37 e93d
00000070: 2b3a 77bc 944a 783e 0e84 71be 4af8 503e
00000080: f7ff 70be d948 dd3d 3d4d 783c 3548 303e
00000090: a378 59be fd69 1b3e d554 d03d 4cc5 bdbd
000000a0: d1b1 483e d93b 333e 9a86 203e 2cba 6bbe
000000b0: 121b 513c e3df 03bd 4fab 81bd e5eb 263e
000000c0: dadb 76be 54de 133d 0f23 af3c cead 55be
000000d0: f77f fd3c 07e3 6f3e 4813 1ebe 85a9 4c3e
000000e0: e1e8 73bd 5335 8bbd f9e5 5e3e cc9d d3bd
000000f0: 40c7 243d ae64 dabb a356 ffbb dc8d 653e
00000100: 4fb5 c7bc 2afc 103e 57f0 e03d 128c 0e3e
00000110: 3992 56bc 8ecc f03d 98bd 31be eb6b 6fbe
00000120: a437 873d 017b 253e 06ea c43c 3fe7 49be
00000130: 4ad2 403e 4024 7e3d da21 13be 0087 4d3d
00000140: c085 b9bc 5ab3 01be ac52 5b3e 2338 39be
00000150: c8a3 a63d dfbf 4dbe 703d 063d 94d7 4dbe
00000160: 4c0d 5c3e fd81 7cbe 9400 27bc 31d8 70bd
00000170: c610 fabd c1b9 febc 4773 10bc 45de 30be
00000180: 692d 0fbe 2735 fc3c d733 2cbe d320 27bc
00000190: ff6b b4bd d31c e43d df21 4ebe 211e 52be
000001a0: 8548 733e 101f 063e 4d97 7ebd 17fe bb3d
000001b0: cdb3 d53d 47db 453e 2d72 2fbe 2ed1 19be
000001c0: e223 76be aac7 9cbc 3b6d 1dbd 55a6 1b3e
000001d0: 8892 ad3d 9dec 8d3d 30a9 5cbc d741 a3bd
000001e0: eb07 18be d3cf 08bd 73e8 4d3e d91b 0a3d
000001f0: 0e28 183e e6ce 3abd da1e e73d 245b 8cbd
00000200: 6e75 54be 9564 afbd e205 6a3c 4413 7b3e
00000210: 977a 41be 9355 48be 5876 1a3e cf0e 903d
00000220: 9717 9abd 1158 a1bb cd0d bf3c 0299 3c3e
00000230: 55f4 0e3e cc7d 66be 2654 953c 9fc0 5ebe
00000240: c62c 5d3e 86b3 d13c 1c23 f83d e3c7 f4bd
00000250: 4c0d 7f3d 9ae6 fdbc 65e7 5f3e 733f 28be
00000260: fea2 2b3c 0758 7c3e 2701 89bd 53f7 f53d
00000270: 203f 69be 36c9 793d ef7d 27be 9716 393e
00000280: d9ec 013e e390 31be 1bfc 573e 0728 79be
00000290: 8728 cdbd 2c3b 65be d836 c9bd 3907 653e
000002a0: e9fc d4bd c470 7dbe fdd4 803d 9258 4c3e
000002b0: 8f3b 26be d337 c83d ee44 483e b5de 7abe
000002c0: 32cc 0c3e aefd e1bd 7948 58be 6406 fe3d
000002d0: 9e57 253e a90e 4cbe fce0 163e d81a 02be
000002e0: 1b35 64be 1934 3cbd 9115 5fbe 14e4 9cbc
000002f0: 625a 87be 5ca9 6f3e 8ffe 13be 646f 05be
00000300: 6cc7 17bd 412f ef3d d64f 933c d38b 38be
00000310: 4929 d7bd 8281 b83d 7fc1 473e 0488 383e
00000320: 4cd9 7fbe 659e 933c 5069 b3bd e931 eb3d
00000330: 3431 a9bd 7366 113e b0a0 7f3d e196 423e
00000340: bc73 193d c1cb a1bd caae 5bbe 7897 b23c
00000350: f2aa 543e 66d6 1ebe 3ccc 6ebe 6ccb 39be
00000360: b2a5 bebd c5bd 39be 876c 7e3d ebe9 143e
00000370: 86f8 1cbe 739d 523e d7a7 75be 6659 0e3e
00000380: e813 55be 963c fd3d 9b42 633e 0fb0 493e
00000390: 936b 8cbd 98eb 603e 5b0e 7f3e 2020 b8bd
000003a0: cda1 d2bd 8004 77be 0d58 7e3e 1e84 4b3d
000003b0: 6147 e53d 555a 0bbe 0724 af3c cb46 77be
000003c0: cc4b 99bd 3011 d03d ecb2 36bd 70c6 d83d
000003d0: ec28 f9bd 3c1a b93d a28c e9bd 365e 033e
000003e0: 3339 823e c0e9 363c c878 5abe e0e9 79bd
000003f0: aabc 3c3e d872 ff3d 8605 80bd 7ed7 1b3d
0.17102331 -0.0754785 0.1939175 0.033137396 -0.13536356 0.09466782 0.008645608 -0.23472609
0.08270923 0.17842501 0.13683304 -0.06608472 0.26236433 -0.13890122 -0.07950221 -0.19296774
0.25859973 0.19134727 0.08321572 -0.076613806 0.20957147 0.030669225 -0.035784915 0.05876032
0.05567464 -0.13870367 -0.13983193 0.11387499 -0.015089552 0.242472 -0.23585531 0.20407215
-0.23535143 0.1080491 0.015155134 0.17215045 -0.21237426 0.1517715 0.101724304 -0.09266147
0.19599082 0.17503299 0.15676346 -0.23020238 0.012762802 -0.032195937 -0.06331503 0.16300924
-0.24107304 0.0361007 0.021379022 -0.20867082 0.030944807 0.23426448 -0.15437043 0.19986542
-0.059548263 -0.0679728 0.21767415 -0.10332832 0.040229082 -0.006664834 -0.0077923103 0.22417396
-0.024378447 0.14158693 0.10983341 0.1392062 -0.013096386 0.11757766 -0.1735748 -0.23381011
0.066024095 0.16160204 0.024037372 -0.1971712 0.18830219 0.06204629 -0.14368382 0.050177574
-0.022646785 -0.12666073 0.21418256 -0.1808782 0.081367075 -0.20092724 0.032773435 -0.20101768
0.21489447 -0.24658962 -0.010193009 -0.058799926 -0.122102305 -0.031094434 -0.008816547 -0.17272289
-0.13982166 0.030787064 -0.1681665 -0.010200697 -0.08809661 0.1113831 -0.20130108 -0.20519306
0.23758133 0.13097787 -0.06215601 0.09179323 0.10434685 0.19321929 -0.17133398 -0.15021202
-0.24037126 -0.019138176 -0.03843425 0.1520017 0.08475214 0.06929896 -0.013468072 -0.07971542
-0.1484677 -0.03340132 0.20108204 0.033717964 0.1485903 -0.04560747 0.11285181 -0.06853321
-0.20747921 -0.085641064 0.014283629 0.24519068 -0.1889442 -0.19563894 0.15084207 0.070340745
-0.07524031 -0.0049238284 0.02332201 0.18417743 0.13960393 -0.22508925 0.018228602 -0.21753167
0.21599111 0.025598299 0.121160716 -0.11952188 0.06226854 -0.030993748 0.21865614 -0.16430454
0.010475872 0.24642955 -0.06689673 0.12010064 -0.22777987 0.060982905 -0.16356634 0.18075024
0.12688006 -0.17340426 0.21092264 -0.24331675 -0.100174956 -0.22385854 -0.09824914 0.22366036
-0.10399801 -0.24750048 0.06290624 0.19955662 -0.16233657 0.097762726 0.19557545 -0.24499018
0.1374977 -0.11034714 -0.21121396 0.12403563 0.16146705 -0.19927467 0.14734262 -0.12705553
-0.22285883 -0.04594812 -0.2178557 -0.019151725 -0.26436144 0.23404449 -0.14452575 -0.13030773
-0.037055418 0.11678935 0.017982405 -0.18022089 -0.105059214 0.09009077 0.19507407 0.18020636
-0.24985236 0.018019864 -0.08760321 0.11484129 -0.08261338 0.14199238 0.062409103 0.19002868
0.03746389 -0.07900191 -0.21453395 0.021800742 0.20768335 -0.15511474 -0.23320097 -0.18144006
-0.093089476 -0.18138798 0.06211522 0.14542358 -0.15329179 0.20567875 -0.23989807 0.1390129
-0.20808375 0.123650715 0.22193377 0.19696067 -0.06856456 0.21964872 0.2490782 -0.08990502
-0.10284767 -0.2412281 0.24838276 0.049686544 0.11195255 -0.13608678 0.021379484 -0.24148099
-0.0748516 0.10159528 -0.044604227 0.10584724 -0.12166008 0.09038207 -0.11403777 0.12828907
0.25434265 0.011164129 -0.21335137 -0.061014056 0.18431345 0.124730766 -0.062510535 0.038047306

0.bias f4 [128]
00000000: b91c 22be e083 40be 06a6 73be cbf8 93bc
00000010: 33a8 4cbe a886 d9bd 1de7 05bd f4ef 773e
00000020: 31db f93c faab 7a3e a87d e53d 1b7a 95bd
00000030: f0e9 383e d395 79be 1649 a23d 6ee4 49be
00000040: 78cd 5fbe 9906 253e 387b fdbd 1949 7f3e
00000050: 9880 643e fce4 c03d 8b3c d93d c2f3 323e
00000060: f7e4 adbc 6299 023e 98b7 39be 602f b73d
00000070: 3f59 33be 3674 4dbd 87af 293c ee37 023e
00000080: 8b69 6e3e a397 65bd b82d 55bd f80a 4e3e
00000090: 026d 1abe ca72 11be 25fd 1d3e 580d 3dbd
000000a0: b732 483e 84dd cfbc 314a 443e 779f 0ebe
000000b0: 2e30 3dbe 579a b5bd 9016 613e 900b 4cbc
000000c0: 92c3 71be 7906 583e a030 3b3c 0f18 6fbe
000000d0: 4294 5f3e 9d06 ff3d da87 523d fab6 583e
000000e0: c250 98bd a92a 983d dd36 da3c 697f 16be
000000f0: 84b3 4cbe ebf5 eabd 5bad 62be 2054 32bd
00000100: c1bd 623e 9197 753e c51f b4bd 186c 4a3d
00000110: 8266 9cbd f311 14bc 2126 f1bb 3b78 3f3e
00000120: 4f79 3b3e c635 08bd eee6 52be 7800 3ebd
00000130: fc14 a13d 9701 9dbd 732c 4abe f596 72be
00000140: 7ea8 7abc 5757 06be 51c1 633e 11c9 473e
00000150: 99cd 7e3e 97fe 433e 691a 89bd b06b 17bc
00000160: f324 9d3d 82f4 52bd b71e ea3d d7e8 243e
00000170: 60bb bd3d 9231 4fbd 7b9f 79be c673 51be
00000180: 3918 eb3d bee7 bb3d d13f 5f3e 075d 5fbe
00000190: 214c 1ebe b9cf 173e 9ef1 4b3e e9ff 2a3e
000001a0: 52a5 4fbe 8ede ae3d 7937 afbc 75a0 c9bd
000001b0: 8be9 883e c92e 6a3e 27f2 6a3c b124 283e
000001c0: 2010 b73c 3027 153d 2a5b c63d fca8 a1bd
000001d0: a192 0b3d a197 34bd 983f 233e f48d c2bd
000001e0: d728 503e 6f42 1dbe b6bb 383e 43fb 0bbe
000001f0: 08f3 82be d425 133e a5f9 6bbe 1554 3cbe
-0.1583127 -0.18800306 -0.23793802 -0.01806297 -0.19986038 -0.10621387 -0.03269111 0.24212629
0.030500026 0.24479666 0.11205608 -0.072986804 0.1805799 -0.2437356 0.07924096 -0.19716045
-0.21855724 0.16115798 -0.12377018 0.24930228 0.2231468 0.09418675 0.10607251 0.17475799
-0.021227343 0.12753823 -0.18136442 0.08944583 -0.17514513 -0.050159656 0.01035679 0.12716648
0.23282449 -0.056052815 -0.052045554 0.20121372 -0.15080646 -0.14203945 0.15428598 -0.046155304
0.19550596 -0.025374182 0.19168927 -0.13928019 -0.1847541 -0.088673286 0.21981263 -0.012453929
-0.2360976 0.21096219 0.011425167 -0.23349021 0.218339 0.12452433 0.05139909 0.2116355
-0.07437278 0.07430012 0.026637489 -0.1469704 -0.19990355 -0.114726864 -0.22136442 -0.04353726
0.22142698 0.23983599 -0.08795122 0.049419492 -0.07636739 -0.009037483 -0.0073592816 0.18698208
0.18307994 -0.033254407 -0.20595905 -0.046387166 0.078653306 -0.07666319 -0.19743519 -0.23690398
-0.015298961 -0.13119255 0.22241713 0.19510294 0.24883117 0.19140087 -0.066944905 -0.009241983
0.07673063 -0.051502712 0.1143164 0.16104446 0.092642546 -0.050584383 -0.24377243 -0.2045432
0.114792295 0.09175061 0.21801688 -0.21812831 -0.15458728 0.14825334 0.19916388 0.16699184
-0.20277908 0.08538543 -0.021388756 -0.09845058 0.2674068 0.2286941 0.01433996 0.16420247
0.022346556 0.036414325 0.09685357 -0.07893559 0.034075383 -0.044089917 0.15942228 -0.09499732
0.20328079 -0.15357374 0.18040356 -0.13670067 -0.25576043 0.14369899 -0.2304445 -0.1839145

2.weight f4 [128, 128]
00000000: 3338 8e3d 06d7 733d b5c7 903d 4a61 3b3d
00000010: 76e8 3d3d f0ea bc3b 9e33 533d a645 403d
00000020: 35ff 03bd 10c9 93bb e8b0 b1bc a2b5 343d
00000030: b896 1bbc 2464 a13c fe33 653d aa52 5b3d
00000040: 3bf4 02bd 09bd 1fbd 703e 03bc 2c55 d93c
00000050: d3d6 843d df5c 5bbd dcd7 813c 5dbf 2abd
00000060: 0482 943c 285f 323c 8434 8e3c 6a2d 433d
00000070: 0069 feb9 6043 02bc 4f9b 0bbd da75 82bd
00000080: 6819 9fbd 34eb 963c a360 66bd b3b3 3ebd
00000090: ceb1 7c3d 6509 3dbd f291 4bbd e8cc b93c
000000a0: 5ce7 0d3d 20b1 80bd 9046 703c ae6a f9bc
000000b0: a856 ab3c 7a27 7d3d 39e8 1bbd d636 6b3d
000000c0: 7b3f a4bd 4afb 0d3d ba23 77bd c443 a83c
000000d0: 3acc 7d3d 5865 42bc 9f32 12bd 78c3 bd3c
000000e0: bb9e 66bd 782c 8abd 88c9 2abc 44fd a7bd
000000f0: fc3d 86bc 0431 86bd 5145 0bbd 034e 59bd
00000100: d03a f53b 700e 0c3c 63af 11bd 2f6d 83bd
00000110: 6dbc 9fbd 3a25 463d ebee 9f3d 1416 ca3c
00000120: 80aa c1bc 40c2 083d 2c63 86bd c081 09bc
00000130: c394 9abd c04c 2cbc 826e 7fbd 5081 083d
00000140: a9e1 a83d 24ab c73c 3608 643d 8cb3 f33c
00000150: 7cb6 cabc c667 783d 4865 a3bd cc08 76bd
00000160: f899 62bc 820d 073d 6ee4 7b3d e8d8 10bc
00000170: 0c5f d53c d691 91bd e755 813d df8d 8a3d
00000180: 1a2a 98bd 3a8a 4f3d 00bd 3c3b 3d6c ae3d
00000190: 5b40 aebd 9060 ee3b 5f11 52bd 1a80 06bd
000001a0: 16f1 633d 44c8 8bbc 1bc8 843d 3e58 83bd
000001b0: 0306 52bd 50b4 d23b 90e0 ba3b 3e14 313d
000001c0: 9079 07bc e093 94bb bada 593d e203 443d
000001d0: 9891 30bc f22b 583d 239c a03d cfce b33d
000001e0: 0c55 12bd 74a3 d63c 3136 84bd d4e1 3abd
000001f0: 62b3 7c3d 607b 3d3b 0009 1fba 8ccd 943c
00000200: 5dbb 773d 9a55 0dbd 7a5c 99bd eaa6 dfbc
00000210: 6485 913d 0fe3 ac3d 4073 8ebd 307b aebd
00000220: 595a 033d 60ec cbbc 8294 953d 5540 0f3b
00000230: fa56 083d ca48 1bbd 49ec 13bd d7c8 65bc
00000240: 696a a03d b0b8 fa39 fafc 4e3d c622 313d
00000250: bec1 333d eb9f 5abb d474 bc3c d347 a43d
00000260: bb38 0d3d b9fe 883d 37d2 7bbd 4467 d43c
00000270: db12 ef3c 5e1d 9ebb 15b7 01bd 234a 8cbd
00000280: eeaa 99bd 8231 603c e0e5 9bbd 6df4 8ebd
00000290: 3264 89bc d736 793d 88cc df3c 6d39 80bd
000002a0: 9c6f 833d 903d 18bc 6b90 5cbd f611 e5bc
000002b0: 9dd4 883d 34c4 8637 1cbc b13c 608f 7bbd
000002c0: aab8 b1bd 286d 84bc dd72 13bd 1b24 a93d
000002d0: f9f8 88bd 94c4 4a3c cefb 1b3d 94ac 77bd
000002e0: b206 803c 4f24 963d 90c1 9a3d 6542 d73c
000002f0: 67f6 b23d 6535 063d 089a 52bc 51bb 74bc
00000300: b34a 353b 1e7c 1dbd 1d35 7e3d 571c 57bc
00000310: 84a8 91bd 7652 38bd 0732 543b 1192 b33b
00000320: 8f4a 5ebc 5d1d 46bc bcd4 2e3d e210 0b3d
00000330: e45d ccbc 607f 1f3d e601 883d a5c9 853d
00000340: 3b5a 6c3d 0d43 b8bd 270d 783d f9fa 8dbd
00000350: 412b 843d fde8 82bd a5a9 3c3d 784d 883c
00000360: 8a31 fd3c 3562 c9bc e5c6 413d 2225 5dbd
00000370: c07f 923c eb14 2fbb a196 813d ab25 0e3d
00000380: e50b e3bc 699e a33d f968 4e3d df34 28bd
00000390: 79b7 3dbd 96fe 873b 6782 bc3c c8f1 1a3c
000003a0: 5ad8 f8bb ef56 323d 2ec4 2fbd ed27 033d
000003b0: 1881 81bd 7015 a8bd a9de 56bd a5f6 133c
000003c0: 7c7b 43bd fe82 153d c839 a03d 3b99 96bd
000003d0: 1957 9ebd b6b3 873d 3614 273c d896 6abd
000003e0: ac8a 0dbc 0e89 893c 09cc b6bd 4418 593d
000003f0: b76e f03c 712b 6b3d c211 7f3d 00bd 593c
0.06944313 0.059531234 0.07069341 0.04574708 0.04636427 0.0057653114 0.051562898 0.046941422
-0.032225806 -0.0045100525 -0.0216908 0.04411853 -0.009496383 0.019701071 0.055957787 0.05354563
-0.031971198 -0.038998637 -0.008010492 0.02652987 0.06486287 -0.053555366 0.01585 -0.041686404
0.018128403 0.010886945 0.017359026 0.047650732 -0.00048524886 -0.007950634 -0.03408366 -0.06370135
-0.07768518 0.0184227 -0.056244504 -0.046558093 0.061693005 -0.046151537 -0.04969973 0.022680715
0.03464447 -0.06283784 0.014665261 -0.030446377 0.020915344 0.061805226 -0.03806326 0.057425343
-0.080199204 0.034663476 -0.060336806 0.020540126 0.061962344 -0.011864983 -0.035692807 0.023164496
-0.05630372 -0.06746763 -0.010424025 -0.082026035 -0.016386978 -0.06552318 -0.034001652 -0.053052913
0.0074838176 0.008548364 -0.035567652 -0.064173095 -0.07799611 0.048375346 0.07809242 0.02466873
-0.023640871 0.033388376 -0.06561884 -0.008392751 -0.07547905 -0.0105163455 -0.062361248 0.033326447
0.08246166 0.024373598 0.055671893 0.0297487 -0.024745218 0.06064584 -0.07978302 -0.060066983
-0.013830654 0.032971866 0.061497144 -0.008840777 0.026046298 -0.07107894 0.06315213 0.06765341
-0.07429905 0.050668932 0.0028799176 0.085167386 -0.085083686 0.0072746947 -0.051286098 -0.03283701
0.05564984 -0.017063268 0.064834796 -0.06413315 -0.051275264 0.0064301863 0.0057030395 0.043232195
-0.008268729 -0.0045342296 0.05318711 0.047855265 -0.0107769 0.052776285 0.07842281 0.0877968
-0.03572564 0.026200987 -0.06455649 -0.045625523 0.06169451 0.0028912649 -0.000606671 0.018164419
0.060481418 -0.034505464 -0.07488342 -0.02730127 0.0710552 0.084417455 -0.06955576 -0.0851959
0.032068584 -0.024892986 0.07303716 0.0021858413 0.033286072 -0.037911214 -0.03611401 -0.014024935
0.07832796 0.0004782132 0.050534226 0.043246053 0.04388594 -0.0033359479 0.023004927 0.08021512
0.03447793 0.066892095 -0.061479773 0.025928147 0.029183796 -0.004825278 -0.03166874 -0.06850078
-0.075033054 0.013683679 -0.076122046 -0.06980214 -0.01677141 0.060843315 0.027319208 -0.06260953
0.06417772 -0.009292021 -0.053848665 -0.027962666 0.06681178 1.6065409e-05 0.021696143 -0.06141603
-0.086778 -0.016165331 -0.035998214 0.0825884 -0.06688113 0.012375969 0.038081937 -0.060467318
0.015628193 0.07331144 0.0755645 0.026276777 0.08738404 0.032765765 -0.012854107 -0.014937238
0.0027662932 -0.038448445 0.06206237 -0.013129315 -0.0711222 -0.045000516 0.0032378451 0.005480059
-0.013567581 -0.012091962 0.042683348 0.033951648 -0.024947114 0.038939834 0.06640987 0.06532601
0.057703238 -0.08997164 0.060559418 -0.06932635 0.064535625 -0.06392095 0.046060223 0.016638502
0.030907411 -0.024582962 0.04730882 -0.05399049 0.017883182 -0.002671535 0.06327558 0.03470389
-0.027715633 0.07989199 0.05039308 -0.041066047 -0.04631755 0.004150222 0.0230114 0.009457059
-0.0075941505 0.043539938 -0.0429117 0.032020498 -0.06323451 -0.08207214 -0.05245844 0.009030973
-0.047725186 0.036501877 0.07823521 -0.07353445 -0.07731456 0.06626074 0.01019769 -0.057272762
-0.008639019 0.016788986 -0.08925635 0.053001657 0.029349668 0.057414476 0.062272795 0.01328969

2.bias f4 [128]
00000000: f8c1 64bc 8abe 3e3d 6c95 8bba 38f7 563d
00000010: 4851 1cbc 16de 693d eb02 103d ea4c 16bc
00000020: 5e20 a6bd 6283 843b 0990 8e3d 35c1 2e3d
00000030: a0f6 803b b40f b83d f156 5bbd 40a2 133d
00000040: 916b 8d3d 8cae 7bbd e50d b1bc bdb4 693d
00000050: 4bc5 2ebc 565c e83b dca0 9bbd 7747 ecbc
00000060: e26e 273d 9657 c53d ee95 3dbd 3f3b 92bd
00000070: 725d 4f3c e258 cb3c 8103 4ebd 89a4 973d
00000080: 28c6 0abc f40b c83d 9576 a23d 4c1c a1bd
00000090: 1330 413d 1c0d 66bc b0bc 27bc 2bd5 d8bb
000000a0: 95f6 49bd ec00 aebd 5a7c f63c 8388 893d
000000b0: 1cca c03c ace5 a33d cb6f a1bd cb1d 1a3d
000000c0: 6c06 523d 3397 a3bd 970e 91bd 04a9 863d
000000d0: 3c85 d13c 6ff8 b93d 9c1e a3bd 5cc8 383d
000000e0: 4a8e 5dbd 52fd 613c a777 afbd 187a 503b
000000f0: f65d 6e3d e9a3 b3bc 738c 8d3d 9fe0 2abd
00000100: 5e10 b4bd c628 d03c ef90 c93d 1d4d 073c
00000110: a6cb 99bd a285 113d 21b2 3b3d d143 b33d
00000120: f30d 733b 6a30 09bd 584d 47bd 4dd0 a7bd
00000130: 5595 79bd d10a 2cbd 9d3e 503c a7c9 a53c
00000140: 06ee 81bc 3594 133d 798b 49bd dc43 18bd
00000150: fa84 90bd e873 2c3d 499a e83c 827b c23d
00000160: 7b86 96bd e467 243d a5e3 0bbd a4de 87bd
00000170: 345f 04bb 5e9f babd 6fe7 a43d d444 40bd
00000180: cd73 b5bd 3a23 a73c 0ead afbb 1ebb 20bd
00000190: 86f4 88bd 7d8d 54bd c1de 593d 60f5 983d
000001a0: aa0f 223d 10d8 a1bd b797 363c c668 bb3d
000001b0: 68a1 97bd b3b4 41bd f8f8 38bc 8327 20bd
000001c0: feb6 a3bd 07e7 273c 52ae b03d 64db 913d
000001d0: ec5c 97bd 75d3 b33d 23f1 103b 19b1 bf3c
000001e0: a4c5 a4bc f595 3e3c e4d0 4f3c 83be 143d
000001f0: 3679 9e3d 2f97 6dbd c550 2dbd 0e16 81bd
-0.013962261 0.04656843 -0.001064939 0.05248186 -0.009540863 0.057096563 0.035159033 -0.009173611
-0.08111642 0.0040439824 0.06961066 0.042664725 0.00393565 0.0898737 -0.05354971 0.036043406
0.06905282 -0.061445758 -0.02161307 0.05705713 -0.0106671555 0.0070910854 -0.07599041 -0.02884267
0.04087723 0.09635846 -0.046285562 -0.071402065 0.012656556 0.024822656 -0.05029631 0.074044295
-0.008470096 0.09767905 0.07932774 -0.07866725 0.047164988 -0.014041211 -0.010237858 -0.0066172085
-0.049307425 -0.084962696 0.030088592 0.06715491 0.023533873 0.08002791 -0.07882651 0.03762607
0.051275656 -0.07987823 -0.07082861 0.06575206 0.025576226 0.09080588 -0.07964823 0.045112953
-0.054090776 0.013793306 -0.08567744 0.0031811055 0.058195077 -0.021928744 0.06911554 -0.04171812
-0.08792184 0.025410067 0.09842097 0.008258131 -0.07509546 0.035527833 0.045824174 0.08753169
0.0037087172 -0.033493437 -0.048657745 -0.08194027 -0.06093343 -0.042002503 0.012710241 0.020237757
-0.015860569 0.036030013 -0.049205277 -0.03717409 -0.07056613 0.042102724 0.028393881 0.094962135
-0.07349869 0.04013814 -0.034152646 -0.06634262 -0.0020198347 -0.09112428 0.08051955 -0.04694064
-0.08859978 0.02040254 -0.005361206 -0.03924095 -0.06687264 -0.051892746 0.05319095 0.074686766
0.03956572 -0.07902539 0.01114457 0.09150843 -0.07403833 -0.04729147 -0.0112898275 -0.03910018
-0.07993887 0.010247952 0.08626999 0.071219236 -0.0739077 0.087805666 0.0022116385 0.023399876
-0.020113774 0.011632432 0.012684081 0.0363145 0.07737963 -0.058005508 -0.042313356 -0.06303035

4.weight f4 [5, 128]
00000000: d8c6 3b3c 0e7b a1bd 5328 84bd 56fc a5bd
00000010: 9f5e 22bd 556b 10bd fdf0 403d 7bce 6bbc
00000020: 99ce 22bc 73ff 4d3d 0a09 0f3d ebf8 90bd
00000030: 105c 433c 8a17 cc3c 7357 863d 80ba 99bb
00000040: 3c0f 5dbd 9d6c adbd e9a9 443d f19c acbc
00000050: 7133 a1bd ea5d 0fbd c7dc 47bd c8db 92bd
00000060: 5ff6 6d3d b0ac 933c dd3c 803d 772b 873d
00000070: 5866 1f3d 7490 9c3d 56a0 31bc ce78 73bd
00000080: fc0d dcbc 6546 abbd 25cb 6a3d 8b0f 9ebd
00000090: 3fe7 dd3c f6e7 2e3d 7030 083d 4b54 6cbd
000000a0: cc4a b03c 03ae 8fbd 9e99 8dbd c8c0 c7bd
000000b0: 9a51 763d e556 b5bb cc71 8fbd 16b4 4dbc
000000c0: d30b 34bd edff 363d 6805 d03c 5fe7 723d
000000d0: e4bd d1bc a479 9ebd f907 ac3d aedf a53c
000000e0: 5ce9 abbc 44b7 133b 76e9 053d 8e10 c43c
000000f0: 0ac7 8ebc d79a 23bd 1123 433d 64e8 41bd
00000100: dd25 353d fc5f b6bd b143 ad3c 3cae 5f3d
00000110: 56e7 5d3d dbb0 27bc 08ca 0cbd 735b 9bbd
00000120: fd3d afbd 406e 783b 8e45 4dbd dc16 37bd
00000130: 0b89 d03c 42ef f33a 3895 813d d5c2 5fbd
00000140: c93d bcbd 655a 693c 9b39 c23c 4e50 9b3b
00000150: d256 b6bd bd05 963d 7c75 f83c 7523 31bd
00000160: 34f2 863c b446 59bd b27e 93bd a0f5 60bb
00000170: 4629 cebd a69d 6f3d dca8 ab3b 3d97 af3d
00000180: 7a38 aa3d 349f 1b3d 0962 083d a811 a4bd
00000190: cd15 5c3d 6752 4bbd 090e 11bd da19 bfbb
000001a0: 583a 2f3d 0cf2 703b 5260 b63c 1f77 b83c
000001b0: bcd0 3bbc 7098 ba3c 40b5 27bb 6820 63bd
000001c0: 50f1 56bd 79e7 803c bfb3 713d 85d5 a13c
000001d0: 6004 b4bd ec28 bfbd dfd3 4f3d ef72 933d
000001e0: eeb6 33bd 79ae 6bbd a331 bfbd ee42 94bd
000001f0: 12b8 37bd 5409 c8bd b337 dc3c d75f 27bd
00000200: 8852 22bd f4d8 a23d 6875 963d e70d 06bd
00000210: 00c8 83ba 3cb0 80bc 3f59 923b 6c86 ae3b
00000220: 46cc 9e3d 21d7 9bbc 6ee8 73ba ba97 0c3d
00000230: d078 d8bb e756 4c3c e302 903d 84a1 bf3c
00000240: b185 233d fe57 793d 8568 2e3c 22e0 44bd
00000250: a51c b83c 3824 76bd 4c81 b03c 24c9 9b3d
00000260: 8d6f ec3c 0404 993d 3876 1a3c 7c3d 333c
00000270: 04b4 b03d 2c2a aabd a058 81bd d77b 33bd
00000280: 20d5 b5bc 118e 7abd 793c 173d de3d 07ba
00000290: 3cf8 60bc c578 23bc f285 263d 3d7c 7b3d
000002a0: de46 923d 751b 743d 30be adbd 89b8 f3bc
000002b0: b883 b5bc 4510 1fbd c008 1b3c e203 a93d
000002c0: 3eb2 35bc 2c36 9cbc 07b5 a8bd f78a 91bb
000002d0: 059e 3dbd 77d5 283d 73d9 8cbd 8205 753c
000002e0: efe5 143d 627b 2e3c 2072 753c b4a1 bfbd
000002f0: 9e62 853d bcba a83c 3c64 2f3c 9ae8 10bd
00000300: 01f9 ab3d c8a9 b1bd 4a89 dcbc 0f7a dabc
00000310: 7d39 98bd 5e1c 77bc 5059 6c3d 3e73 4e3d
00000320: fd1f 35bd 2464 ca3c 16b4 653d d084 6abd
00000330: 8757 bdbc 05cd 30bd b39a bebb c63d 1c3d
00000340: cf22 933d cff4 1c3c cdf3 923d ac29 97bd
00000350: 7422 033d cf32 753d 2953 a1bd 78ab 35bd
00000360: 4535 7cbd 989a 503c 486c 8ebd 0ea5 193d
00000370: 7191 0cbd e531 d3bc 6525 653d 9457 3cbd
00000380: 4f91 0dbd 3e04 99bd ae6e 303d c0af 0bbc
00000390: f8e1 ba3c b9d2 263d 2d07 9bbd a14e 71bd
000003a0: b7d7 a9bd c580 71bc 8168 37bd b5a1 9ebd
000003b0: 0477 58bd ddc6 69bd 9fb1 6c3d 3772 c33d
000003c0: 005f 7d3a bb94 123d 7867 b23d df52 28bb
000003d0: 80d0 f9ba d795 71bc 41fe 8b3d c397 2cbb
000003e0: a87e 1abc 08cc d4bc 393c 553d ac17 193d
000003f0: 658f 99bb 28ae b73c e88c 5a3d 597e 16bd
0.011460982 -0.07884799 -0.06453004 -0.0810477 -0.03964102 -0.03525861 0.047104824 -0.0143924905
-0.009936952 0.050292443 0.03492073 -0.07078727 0.011923805 0.024913568 0.06559648 -0.004691422
-0.053969607 -0.08467982 0.0480136 -0.02107093 -0.0787114 -0.035001673 -0.048794534 -0.07170826
0.058096286 0.01802668 0.06261609 0.06600087 0.038915962 0.0764474 -0.01084145 -0.05944138
-0.026862137 -0.08363036 0.05732264 -0.07717808 0.027087806 0.042701684 0.03324932 -0.057697576
0.02152004 -0.07015612 -0.06914066 -0.09753567 0.060136415 -0.0055340403 -0.07004127 -0.012555143
-0.04395659 0.044677664 0.025393203 0.059302684 -0.025603242 -0.07738045 0.08399958 0.02024826
-0.020985298 0.0022539655 0.03269335 0.023933675 -0.017428894 -0.03994259 0.047640864 -0.047340766
0.044225562 -0.08905026 0.021150442 0.054609522 0.054175697 -0.010235037 -0.03437236 -0.07585802
-0.08556745 0.003790751 -0.05011516 -0.044699535 0.025455972 0.0018610733 0.06327289 -0.054629166
-0.09191472 0.014242743 0.023709109 0.0047397977 -0.089032784 0.07325313 0.030329458 -0.043246705
0.016472913 -0.053045943 -0.072018996 -0.0034326091 -0.10066466 0.058499955 0.0052386355 0.08573768
0.08311553 0.037993625 0.03329662 -0.0801118 0.05373173 -0.049639132 -0.035413776 -0.005831939
0.04278025 0.0036765365 0.022262726 0.022517739 -0.01146334 0.022777766 -0.002559021 -0.055450827
-0.052476227 0.015735375 0.05900931 0.019755134 -0.08789897 -0.09333977 0.050739165 0.07199656
-0.043875627 -0.057539437 -0.09335639 -0.07239328 -0.044853278 -0.09767404 0.026882028 -0.040862884
-0.03962949 0.07951537 0.07346612 -0.032728102 -0.0010054111 -0.015709035 0.0044662054 0.005326083
0.07753806 -0.01902348 -0.0009304349 0.034324385 -0.006606199 0.012471891 0.070318006 0.023392446
0.03992242 0.06087493 0.010645037 -0.048065312 0.022474596 -0.060093135 0.021546029 0.07606724
0.028861785 0.07471469 0.0094276 0.010939952 0.08628085 -0.08308825 -0.06315732 -0.043819275
-0.022196352 -0.06117064 0.036922906 -0.000515906 -0.013731059 -0.009977524 0.040655084 0.06139778
0.07142423 0.059596498 -0.08483541 -0.02975108 -0.022157535 -0.038833875 0.009462535 0.08252694
-0.0110898595 -0.0190688 -0.08237653 -0.0044416147 -0.046293277 0.0412192 -0.06877413 0.014954926
0.036352094 0.010649534 0.014980823 -0.09357014 0.0651295 0.020596854 0.01070505 -0.035378076
0.08397103 -0.08674961 -0.026920933 -0.02666953 -0.0743284 -0.015082447 0.057702363 0.050402872
-0.04421996 0.024705954 0.056079946 -0.057255566 -0.023113025 -0.04316427 -0.0058167814 0.03814485
0.071843736 0.009579851 0.071754076 -0.07380995 0.03201528 0.059862908 -0.0787719 -0.04435298
-0.06157424 0.0127321705 -0.06954247 0.037510924 -0.03431839 -0.025780628 0.055943865 -0.04598196
-0.034562405 -0.07471512 0.043074302 -0.008525789 0.022812828 0.040728305 -0.07569728 -0.058912877
-0.082930975 -0.014740174 -0.044777397 -0.07745687 -0.052847877 -0.057074416 0.05778658 0.09543269
0.000966534 0.03578637 0.08711141 -0.002568416 -0.001905933 -0.014745197 0.068356045 -0.0026335574
-0.009429611 -0.025976196 0.052059386 0.03737609 -0.0046862834 0.022421911 0.053357035 -0.03674159

4.bias f4 [5]
00000000: 1f2d 88bd f072 e2bc 5b77 423d 0fd0 b73d
00000010: 8bbe 853d
-0.06649231 -0.027642697 0.047477107 0.08975231 0.06530484

0.weight f4 [128, 15]
00000000: b863 533e eb2a 49be 1cae 913d f418 1e3c
00000010: 167d 463e c7b1 c2bc 655b 50bd 0ada 273e
00000020: 3fc4 1dbe cd3e c8bb 71d1 29bd 5e29 913e
00000030: 7d63 afbc c179 91bc 9398 153e 1a49 ecbd
00000040: 837b 853e ee1d 06be 66de 3a3e 2d0c e6bd
00000050: 15af 763e 4a48 f93d f7bb 073c 97b6 6ebe
00000060: 8eb9 7c3e 4833 d83d 5803 a53b fefd 703e
00000070: e07c b33d 66bb 38bc 215a e13d 7daa 4f3d
00000080: a5ad a43d 1260 d9bd 339d 603e e14e 3ebe
00000090: eecc 80be ec27 b73d 4fcb 9fbe 36f5 9c3e
000000a0: 75da d8bd 369d 303e 9437 983e 3a7e c83d
000000b0: d5b1 04be eeec d53d c4ce 363e 3347 16be
000000c0: 0cb3 ddbd 349e 9dbd 1bb2 603e 149f 363d
000000d0: 4f4b 3bbe 446d 1b3e dffe 7c3e 0ca0 4ebc
000000e0: 18e1 b0bd 4e8a 8b3e 58f5 a0bd 0dc5 eb3d
000000f0: e63a 85bd 7b98 833e b9b9 fcbd 2ba3 05be
00000100: 2c4f 6c3e d253 65bd 8914 50bd bdb8 85be
00000110: b747 093e bc3c 8a3e 702b 313c 1fe5 503c
00000120: f867 8cbd e885 043d 0f8c 523e f231 023b
00000130: 77d2 19bd 52d1 7fbd f3ed 743e 3de3 f53d
00000140: b1b2 783e 6ebe 36bc 2ffa 5ebc 76e9 96be
00000150: 2090 203e e7ab 433c bd1b d53d cd6c 273e
00000160: 25e9 d93c 92d5 6b3e ef0d 963e db24 3bbe
00000170: a351 21bd 1bc0 813b fe07 42be c28e a7bc
00000180: 10e8 283e a6c8 3dbe 9864 bbbd c20c b33d
00000190: b668 38be abd8 833e 3404 453e d95d 7e3e
000001a0: f9dd b1bb 70b7 1abe 5694 c6bd 6648 1abd
000001b0: f974 19be fd0f f6bd c18d 02be 0224 ed3d
000001c0: 8622 903c 82d9 98be ba28 2fbe 6769 b23d
000001d0: f63a 38be 39c0 813e 03de 1d3e 865e e23d
000001e0: 6fb4 783e 88b7 263e 30ad 583e 6122 733e
000001f0: 774e 11bd f48d 55be 4468 673e 5c5c 28be
00000200: 435b 863d 1a43 bb3a 3911 8d3e 6831 30bd
00000210: d267 1d3e 7bd3 0cbd fa6f a93c 201a a93d
00000220: fe6a 683e af36 b0bd f2a8 353d a756 51bd
00000230: 0b39 003e 803e 3abe 6698 84be 0875 8bbd
00000240: a474 2c3e 2450 1abd 62b4 0e3e e8dd 703e
00000250: 4ae6 013e 52af 40bd 9575 ec3c 40f7 043e
00000260: 9823 27be 6c3c 2dbe 4084 84ba 0ec5 bb3d
00000270: cc67 c03d 1993 96be f7df c7bd 4bc9 263e
00000280: 4602 ea3d 10ec dcbd 92c1 9c3e 3d66 5b3e
00000290: da63 00be 9dba c43d 0c28 153e 4337 353e
000002a0: 533d e4bd fc0b 663e 44dd 5c3e 4058 10bd
000002b0: 87d5 d1bb f6db 65be 9874 6e3d 1ca0 633e
000002c0: e45b 1a3e 281a 19be f7df 173e b5dc 513e
000002d0: 6f8b 863d 9361 133d 4d1a 883e 022c e4bd
000002e0: 39c9 033e 1c33 57be 1056 54be 3af8 abbd
000002f0: e1ad 9e3d f53d 8c3e 7e91 363d 9f43 823e
00000300: beac 6b3e 442c 573e dd00 623e 0fa2 e53d
00000310: f67f 11be ffa7 24be ed6a 14be f52c 4bbe
00000320: 538a abbd f454 0ebe b360 9a3d 388d ff3d
00000330: e7af 083e 02f8 9a3e 616e 66bd 40b1 e0bd
00000340: 8213 9b3e 54e2 fb3d 6986 36bc 7445 f0bd
00000350: c555 4f3e 3948 6b3d 5536 873e 2b68 ebbd
00000360: 9209 b33c f816 df3d 2480 17be b554 713e
00000370: 29bb 9abd e609 a33e 7a8b b43d 3f80 093e
00000380: 88ca 043e bb18 35be c0e8 323e 9d86 3cbe
00000390: 893f 353d a677 72bc 3493 a1bd 2a3d 3a3e
000003a0: 71ab 3b3e 77e3 54be dc6c 2abc 598f d5bc
000003b0: 7ba8 833a 1a56 d8bb bbfb 06bd 1da3 dc3d
000003c0: 53f8 b3bd 5241 863e ad03 9e3e cf6c 2ebe
000003d0: 277b 9e3e 1323 463e e28c 3ebd 071a 50be
000003e0: d415 a0be f44f 213e c864 573d 537a 963e
000003f0: 9bda 123e eb7f cd3d eb68 83bd 3638 0dbe
0.20643508 -0.19645278 0.07113287 0.009649504 0.19383654 -0.023766411 -0.05086841 0.16391769
-0.15406893 -0.006111002 -0.041459505 0.28351873 -0.021409744 -0.017758252 0.14608984 -0.115373805
0.26070794 -0.13097355 0.18248901 -0.11232791 0.24090226 0.12171991 0.00828456 -0.2331184
0.24680158 0.10556656 0.005035799 0.2353439 0.087640524 -0.011275148 0.11003519 0.0506997
0.080409326 -0.10614027 0.21934967 -0.18584777 -0.2515635 0.08943161 -0.312098 0.3065583
-0.10588542 0.17247471 0.29729903 0.09789701 -0.12958463 0.104455814 0.17852312 -0.14675598
-0.10825166 -0.076961905 0.21942942 0.044585302 -0.18290447 0.151784 0.247066 -0.0126114
-0.08636683 0.27253956 -0.078592956 0.11512194 -0.065053746 0.2570227 -0.12340111 -0.13050525
0.23077077 -0.05598814 -0.050800834 -0.26117507 0.13406263 0.26999462 0.010813579 0.012749939
-0.06855768 0.032354265 0.2056124 0.0019866196 -0.03755423 -0.062455483 0.23918895 0.12006233
0.24286915 -0.0111538 -0.013609453 -0.29474992 0.1567998 0.01194284 0.10405681 0.16350098
0.02660043 0.2303069 0.29307505 -0.18275778 -0.039384495 0.0039596683 -0.18948361 -0.020453814
0.16494775 -0.18533573 -0.09150046 0.08742668 -0.18008694 0.25751242 0.19239885 0.24840488
-0.0054280725 -0.15109038 -0.096962616 -0.0376667 -0.14986028 -0.12014768 -0.12749387 0.115791336
0.017594587 -0.29853445 -0.1710538 0.0871151 -0.17991242 0.25341967 0.15416722 0.11053185
0.2428758 0.16280949 0.21159816 0.23743583 -0.03547522 -0.20854932 0.22598368 -0.16441482
0.065603755 0.0014286966 0.27552202 -0.043015867 0.15371636 -0.03438137 0.020683277 0.08256936
0.22697064 -0.0860418 0.044350572 -0.05110803 0.1252176 -0.18187904 -0.2589752 -0.06809431
0.1684137 -0.037674084 0.13935998 0.2352215 0.12685505 -0.0470422 0.028864661 0.12984943
-0.16322172 -0.1691758 -0.0010110214 0.091684446 0.09394798 -0.29409102 -0.09759515 0.16287725
0.11426215 -0.10787213 0.30616432 0.2142572 -0.1253809 0.09605906 0.14566058 0.17696862
-0.11144509 0.22465509 0.21568781 -0.03524041 -0.0064036283 -0.2244719 0.05821666 0.22229046
0.15074116 -0.14951384 0.1483153 0.2049435 0.065695636 0.035981726 0.26582566 -0.11141206
0.12869729 -0.2101559 -0.20735955 -0.08396955 0.077480085 0.2739102 0.044572346 0.25442216
0.23015115 0.2101298 0.22070642 0.11212551 -0.1420897 -0.1607971 -0.14493914 -0.19841368
-0.083759926 -0.13899595 0.07537975 0.12478107 0.13348351 0.3026734 -0.05625761 -0.10971308
0.3028832 0.12299028 -0.011140444 -0.11731997 0.20247562 0.057441924 0.2640864 -0.11494478
0.02185515 0.10893053 -0.14794976 0.2356747 -0.07555229 0.3184349 0.088156655 0.13427828
0.12967885 -0.17685215 0.174716 -0.18410726 0.044250045 -0.014799034 -0.07889405 0.18187395
0.18327118 -0.20789896 -0.010401931 -0.02606933 0.0010044718 -0.006602061 -0.032954913 0.10773299
-0.087875985 0.2622171 0.3086218 -0.17033695 0.30953333 0.19349317 -0.046521075 -0.20322429
-0.31266654 0.15753156 0.052586347 0.293902 0.14341204 0.10034164 -0.06416496 -0.13790974

0.bias f4 [128]
00000000: 17d1 8a3e 962d 3c3e 85a1 1ebe 0077 d13d
00000010: b551 173e deee 883e 01f5 4ebd 4204 cf3c
00000020: d59a 23bc ffff 873e 33ed 5d3d c3f1 f1bc
00000030: ae4a 7e3e 2cd8 38be 02b7 27bd fcfb 643e
00000040: f0fd d03d cf57 06be 0471 cd3d 4e96 0c3e
00000050: 2a87 cfbd 98b7 c63c 2021 803e 52d9 49be
00000060: 1e3b 0abe 6778 4f3e f92a c93d 0fab 0b3c
00000070: d69f d7bd 0374 01be 6c3b 523e 5fa9 1e3e
00000080: 6ae3 1e3e 128e a33e 7044 953e 1e77 ab3d
00000090: a36d 7ebe 312c 723e 4491 b33d 7b5f 75be
000000a0: 6f9c 4c3d e039 893e f006 08be 0c9a 8a3e
000000b0: 30c5 eabd 8154 d6bd 9a32 313e 4a4b 573c
000000c0: 12d0 0dbd be1e 163e ea1c 033e 388e efbd
000000d0: b4c7 a23e 6422 7d3e 04d2 883d f720 5abe
000000e0: bad1 bbbd 5a63 11be c32c 1dbe da90 5c3d
000000f0: e01b ad3d bd36 ed3c 9f62 1b3d d38c 903e
00000100: 676d cfbb d710 7b3e ae4f 723e 240a 903e
00000110: 8e36 15be 9101 ac3e 4cd3 2b3e bdcf 9abd
00000120: 80a3 5a3e 6a9d bf3d c4ed 153e 715d 743e
00000130: 50f6 e1bc 9b74 353d 46bb 1e3e a60e 453e
00000140: 7252 fc3d 6818 d8bd a7c0 2abe 34cc 843e
00000150: c7a0 fabc 37da 6c3e 8b34 76bd 81af ee3d
00000160: d1d4 433d 0f94 a13e 91bc acbc 8709 2cbb
00000170: 2765 6c3e cfb7 933e 82e1 adbd 9bce 89bd
00000180: 3313 f6bd 3145 983e 9919 4e3e 70af c2bd
00000190: a80b 2fbe a3f5 72be 1279 2b3e 7468 f8bd
000001a0: 4ae5 d03d b68a a43e de65 61be 5ce7 6c3e
000001b0: a6c1 53be 4df8 0d3e 6759 9d3e 6331 17be
000001c0: 71b8 be3d f1de 5f3e 8fe3 d0bd 468c 163e
000001d0: 5950 f4bd 6337 893e 7c50 f73b 79a4 7b3d
000001e0: 88a8 853e 9f7d bebc 0556 f1bc b4b5 2c3e
000001f0: bb4c 753e 4626 3c3c 92b7 32be 6054 233e
0.27112648 0.18376765 -0.15491302 0.102277756 0.14777263 0.2674474 -0.050526623 0.025270585
-0.009985645 0.26562497 0.05418129 -0.029534226 0.24833176 -0.18051213 -0.040946014 0.2236175
0.10204685 -0.13119434 0.10031322 0.13729212 -0.101332024 0.024257466 0.25025272 -0.19711807
-0.13499114 0.20260774 0.098226495 0.00852467 -0.10528533 -0.12641911 0.2053048 0.15494297
0.15516439 0.3194433 0.29153776 0.08372329 -0.2484651 0.2364967 0.087679416 -0.23962204
0.049953874 0.26801968 -0.13283896 0.27070653 -0.11463392 -0.104653366 0.17304459 0.013140509
-0.03462226 0.14660165 0.12803999 -0.11697048 0.31792986 0.2472015 0.06680682 -0.21301638
-0.091708615 -0.14198056 -0.15349106 0.05384908 0.08452582 0.028956765 0.03793585 0.2823244
-0.0063301804 0.24518143 0.23663208 0.28132737 -0.14571592 0.33594945 0.16779822 -0.07559154
0.21351433 0.09356196 0.14641482 0.2386377 -0.027583271 0.044300657 0.15501127 0.19243869
0.12320413 -0.1055153 -0.16675054 0.25937045 -0.030594243 0.23130117 -0.060108703 0.116545685
0.04781038 0.31558272 -0.02108601 -0.0026250796 0.23085462 0.28851172 -0.08490278 -0.0672886
-0.12015381 0.2974029 0.20126952 -0.09506118 -0.1709429 -0.23726515 0.16745403 -0.12129298
0.101999834 0.32137078 -0.22011515 0.23135132 -0.2067934 0.1386425 0.3073227 -0.14764933
0.09312523 0.21862389 -0.10199653 0.14701948 -0.119293876 0.2680007 0.0075474363 0.06143615
0.26105142 -0.02325326 -0.029459963 0.16866189 0.23955052 0.0114837345 -0.17452839 0.15950155

2.weight f4 [128, 128]
00000000: fa20 3c3d 67bc 1dbd 3c54 ebbc c054 90bd
00000010: 8bd2 2abd 0fc3 a9bd 8e0e 2b3d 0011 70ba
00000020: 367e 0a3d c590 3dbd f3c3 9d3d 6d38 b13d
00000030: 20dd ecbc 5bc0 09bd ced7 133d 1038 643c
00000040: 200a 19bd 680a 20bd 4ad7 773d 5da3 9e3d
00000050: 0cd2 ca3c 0074 023a d5ab 923d c061 ecba
00000060: ea82 013d 002c b4bd 14f0 c63c a267 013d
00000070: ba2c 383d 7adf 18bd 1737 78bd b838 46bc
00000080: 782b 9bbc ae9a 26bd ec16 ef3c f683 9cbd
00000090: 1e3b 99bd 65b4 5cbd e04c 4e3b b677 d8bc
000000a0: bc67 e1bc efb7 44bd c0c6 12bb e024 433c
000000b0: 9c94 c13c 955e a23d 8a0d 583d dd62 b43d
000000c0: 1c1f 93bc 22b9 2b3d 923b 2a3d fa4e 133d
000000d0: 00d4 deb9 7c33 0d3d 1a8c f7bc 2288 73bd
000000e0: 9573 b4bd 7849 9cbc 630e b03d d841 94bd
000000f0: db8c 66bd f014 72bd 580f 843c baf6 583d
00000100: 14a7 a8bd c7cf 9c3d 308c a9bd 1dc8 9cbd
00000110: d80c 193c f455 b63c d2ea 3d3d ae4b 48bd
00000120: 401f d3ba fe32 3fbd 53f3 ac3d 4885 13bd
00000130: 0046 3ebd 6085 40bb 0415 72bd 9a17 263d
00000140: d2d9 4d3d 26be 82bd a201 1f3d 7c80 a5bd
00000150: 88c1 7e3c 412b a4bd 294f 973d a4ab 98bd
00000160: 68c4 8dbd f0ae a5bd 2046 d33c 3c72 bb3c
00000170: f52d 993d 6c2e 8f3c 5b21 50bd fe3e 1c3d
00000180: 4285 41bd 1c8d b53c 2e36 2d3d 3926 12bd
00000190: b1de a73d eadc 8cbd 2f98 7abd 403e 8a3a
000001a0: 57c4 ab3d bc58 ee3c 97bc 61bd 0743 a93d
000001b0: 4e5b 59bd 5c95 153d d0c0 9ebd fab3 5a3d
000001c0: 62ea 113d b3d2 9cbd c4af 23bd 74dc a5bc
000001d0: b6fe 203d 2638 7b3d c4dd 9c3c 0046 ab39
000001e0: 1516 27bd fd95 2ebd 2468 acbc 283e 8c3c
000001f0: a169 9ebd f043 58bc 330e a8bd 5c8f 36bd
00000200: 21d0 983d 58e1 7ebc 94ab 8f3d dedc f63d
00000210: 810b 923c f8aa f73d b01d 193e d08a 263d
00000220: 7fbd 813d cf9a a23c 50c1 1a3e bd29 093e
00000230: 67d5 2fbc 47cf b53d a5e5 8e3d fa95 40bc
00000240: dd43 8ebc fa2e 283d 5262 823c f1fe f83d
00000250: fb3d 8a3d f2b6 0b3e 90ec a63c ca03 ef3d
00000260: fa5f f3bc aed2 c13d 173a f63d 5c1d 763d
00000270: 352c 9d3d f1ff 8abd d2a1 e23a 45db 13bc
00000280: 9ebe d13d 6855 663d 2275 da3d 9502 d43b
00000290: 9dc4 e43c 56c6 153d 808f 793d 08f9 6abc
000002a0: 9c4c f83d dae8 f8bc fbd5 19bd c247 da3d
000002b0: 63f3 f73c 01e2 c53d 559f d33c 0973 9a3c
000002c0: 79b4 fa3d 0b0b d73d d5ef 98bd 3b1e 363a
000002d0: 6126 a13d 6697 e03d 8eea 58bd 0d5f f23c
000002e0: 6f0f 103e eb59 b13d f938 f5bc 3e34 8e3d
000002f0: b575 b13d cd51 9d3c 1f2d c5bb e20f f33c
00000300: a881 d63c a2e3 ae3d fceb f03d e9a4 3a3d
00000310: c2c2 7d3d d4d7 a1bc a389 aa3d 751f 59bc
00000320: 8173 83bc 6cd1 cd3d e411 e93d 1f01 8c3d
00000330: 6bde c53d 4634 0d3d 7afb a83d 4780 09bc
00000340: 1ba7 6d3d ef61 003e b71d 06bd 056d 0e3d
00000350: 99f8 d5bb f58f 0c3e 42de b6bc e641 0b3e
00000360: 08ce a03c 1bd0 043c 1076 863b a322 edbc
00000370: f460 5cbc 3fd8 a43d efea ea3d f525 44bc
00000380: f1ae f13d 689b aa3c e4c2 93bc c56d ff3c
00000390: 7f23 ea3b e83c c63d 92b7 f83c 724e 3b3d
000003a0: 8ef8 123c bd85 5fbc 0c17 13bd f3cf ef3c
000003b0: 35bc a8bd 7a4e 063e 3b31 a83d 3e46 c2bd
000003c0: a6ff 3d3d a13f f03c 7d07 153d 24be ed3d
000003d0: fc3d c93c a050 d8bb 6ca3 ec3d f161 913c
000003e0: 2204 873d 76ba 0e3e bdc2 313d 0df8 a9bc
000003f0: 9ff2 8d3d 4142 f53d ead7 afbd ecb8 023e
0.045929886 -0.038509753 -0.02872669 -0.07047415 -0.041704696 -0.082891576 0.041761927 -0.00091578066
0.03381177 -0.04628064 0.0770339 0.086533405 -0.028914034 -0.03363071 0.03609448 0.013929382
-0.03736317 -0.039072424 0.06050805 0.07746003 0.024758361 0.0004976392 0.071616806 -0.0018034503
0.03161899 -0.08797455 0.0242844 0.031592973 0.04496453 -0.0373225 -0.060599413 -0.012098484
-0.018941626 -0.040674858 0.029185735 -0.07642357 -0.07481979 -0.053882975 0.0031478927 -0.02642427
-0.027515285 -0.048026975 -0.0022396296 0.011910647 0.023630433 0.07928196 0.052747287 0.08807919
-0.01795917 0.041924603 0.041560717 0.03596399 -0.00042501092 0.034472927 -0.030218173 -0.059456
-0.08811108 -0.019078001 0.08596494 -0.07239121 -0.056286674 -0.059102 0.016120598 0.05296967
-0.082349926 0.07656818 -0.08278692 -0.07655356 0.009341441 0.022257783 0.04636652 -0.0489003
-0.0016107336 -0.04667949 0.08444848 -0.03601578 -0.046453476 -0.0029376373 -0.059102073 0.040549852
0.050256558 -0.06383924 0.038819917 -0.08081147 0.015549071 -0.080160625 0.073881455 -0.07454613
-0.06922227 -0.08090007 0.025790274 0.02288162 0.07479469 0.01747819 -0.05081306 0.03814601
-0.047246225 0.022162013 0.042287998 -0.035680983 0.08196772 -0.068780735 -0.06118029 0.0010547116
0.08387058 0.029095046 -0.055111494 0.082647376 -0.05306559 0.036519393 -0.0775162 0.053394295
0.035623915 -0.07657375 -0.039962545 -0.020246722 0.03930541 0.061332844 0.019148715 0.00032667816
-0.040792543 -0.04262351 -0.021045752 0.017119482 -0.07734991 -0.013199791 -0.08205833 -0.044570312
0.074615724 -0.015556656 0.07015148 0.12053846 0.017827751 0.120931566 0.14952731 0.040659726
0.06334972 0.01984921 0.15112805 0.13394828 -0.010732031 0.08877426 0.06977395 -0.011754507
-0.017366344 0.041060425 0.015916023 0.12158001 0.06750103 0.13644007 0.020376474 0.116706446
-0.029708851 0.09464012 0.120227985 0.060086593 0.076744474 -0.06787098 0.0017290658 -0.009024446
0.102414355 0.056233793 0.106668726 0.0064700344 0.027925784 0.0365661 0.060927868 -0.0143416
0.12123987 -0.03038447 -0.037557583 0.10658218 0.030267423 0.096622474 0.025832811 0.018853681
0.12241454 0.10500153 -0.07467619 0.0006947254 0.07868648 0.10966377 -0.052958064 0.02958634
0.14068387 0.086597286 -0.029934393 0.06943558 0.08665029 0.019204045 -0.0060173417 0.02967066
0.026184872 0.08539511 0.117637604 0.045567427 0.061953314 -0.019756235 0.08327033 -0.013252129
-0.016046287 0.1004971 0.113803655 0.06836151 0.096615635 0.03447368 0.0825109 -0.0083924
0.058020692 0.12537359 -0.032743182 0.034771938 -0.0065298793 0.1372679 -0.022322778 0.13599357
0.019629493 0.008106257 0.0041034296 -0.02894718 -0.01345085 0.08049058 0.11470591 -0.01197194
0.118009456 0.020826057 -0.018037267 0.031180272 0.0071453447 0.09679586 0.03036097 0.04572911
0.008970393 -0.013642726 -0.03591065 0.029273963 -0.08239023 0.13115874 0.08212515 -0.09486054
0.046386383 0.029327216 0.036384095 0.11608532 0.02456569 -0.006601408 0.11554608 0.017746897
0.06592585 0.13938317 0.043398608 -0.020748163 0.06931042 0.119755276 -0.08586104 0.12765855

2.bias f4 [128]
00000000: b4a1 14bd c15d db3d 5099 c5bb af9f e03c
00000010: 6b64 963d 496e b0bd 2247 f13c 8287 483d
00000020: 013c 07bc a433 823c 7811 143d 6e82 3d3d
00000030: a19d f13d 203c 5abc 1406 8f3c 5040 a0bd
00000040: 9d0e 7f3d 6408 b43c c59f aabd 1618 cd3d
00000050: 46f4 ddbc 9e98 eabc 5c3b ea3d a31f 903d
00000060: 6f37 aabd 5d2c 99bd f9a0 e83d 85cc 87bc
00000070: f8de 2bbc e775 f7bc 344e e03c 0d60 b5bd
00000080: d0ae 013e f8bf 523d 7081 8d3b dcda 263d
00000090: dbcc 363d 4969 efbc a010 a2bd d3ab 29bd
000000a0: 7949 8c3d 0572 bcbc b3aa ff3d 7c13 c2bc
000000b0: 9866 2fbc 2e57 92bc 70c2 bdbd 25ef 5d3d
000000c0: ecaf 683d 4070 c4bc 36ea 923d 151b aa3b
000000d0: 027c 8a3d 0787 653d 49e4 8cbd d116 14bb
000000e0: b36d 053d af25 3abd 9eda c5bd de79 f63d
000000f0: efe9 adbd 543b 77bb fa1c 503d 140f 953c
00000100: 3619 3fbd 229a b13b 00a5 7bbb e8ac 05bd
00000110: 14ec 013e db69 a23d 51dd 233d 007b 8ebb
00000120: d42c 083e 3e04 0d3d a295 4ebd 886d 873d
00000130: afe8 c23d 77c6 3bbd fb59 d93d 57db 123e
00000140: 46dd 03bb b40a 813c c66c 12bd 0860 893d
00000150: e01d 9abd 3352 b63d 4a5d b7bd e7e8 04bd
00000160: 5246 043e 73dd 5d3d 3e54 51bd 9846 a83d
00000170: e37f 0cbd 4039 4f3b 5040 fa3d 5425 cf3d
00000180: 7961 093d 89a9 563d 98e0 92bd 41be e53c
00000190: 6daf c53c ca79 b3bd 2c36 2dbc 4e89 013e
000001a0: 0cf5 63bd 1eaf 573d 8bed c83d cd50 9c3d
000001b0: e17d 303d 9afc 5cbc 9de9 8f3d ae9b debc
000001c0: f89d 353d 27e0 0cbd 10db 903d 485e c3bc
000001d0: 7c82 0fbd 399d 1ebc 5832 babb d5bd 073d
000001e0: 440a de3d 8074 3b3d 3e04 88bd 0741 93bd
000001f0: 4f50 de3c 633e 2f3d eec8 7d3d 0049 f23b
-0.036287025 0.107112415 -0.006030239 0.027419893 0.07343372 -0.08614785 0.029452864 0.048957355
-0.008254052 0.015893765 0.036149472 0.046266966 0.117976435 -0.013319999 0.017458953 -0.07824767
0.062269796 0.021976657 -0.08331255 0.1001436 -0.027094018 -0.028637227 0.11437103 0.07037284
-0.08311354 -0.07479165 0.11358828 -0.016577015 -0.010490172 -0.030207587 0.02738104 -0.08856211
0.12664342 0.051452607 0.0043184087 0.040736064 0.04462896 -0.029225009 -0.07913327 -0.04142363
0.06849951 -0.023003587 0.1248373 -0.023690931 -0.010705613 -0.017863836 -0.09265602 0.054183144
0.056808397 -0.023979306 0.071735784 0.0051912167 0.06761934 0.056036975 -0.068794794 -0.0022596607
0.03257532 -0.045446094 -0.096608385 0.12034963 -0.08491885 -0.0037724571 0.050808884 0.018195666
-0.046654902 0.0054199854 -0.0038397908 -0.0326356 0.12687713 0.079303466 0.040005986 -0.004348159
0.1329835 0.034427874 -0.05043567 0.06612688 0.09517037 -0.045843568 0.106128655 0.14341484
-0.0020120903 0.015752174 -0.035748266 0.0670777 -0.075252295 0.08902397 -0.0895334 -0.032448675
0.1291745 0.05416627 -0.05110573 0.0821659 -0.03430165 0.0031619817 0.12219298 0.10114542
0.033540223 0.052407775 -0.07171744 0.028044822 0.024131501 -0.08763464 -0.010571998 0.12650034
-0.055653617 0.05265724 0.09810933 0.07632599 0.043088797 -0.013487959 0.0702698 -0.027173843
0.044340104 -0.034393456 0.07073033 -0.023848668 -0.03503655 -0.0096810395 -0.005682271 0.033140022
0.10841802 0.0457654 -0.06641434 -0.07190137 0.027137903 0.042784106 0.0619592 0.007393956

4.weight f4 [1, 128]
00000000: 30c0 b0bc 210d f5bd e905 fabd 0c57 38bb
00000010: 413b fdbd 2cc5 9f3d 725f 85bd 329d 413d
00000020: 7fd3 453d 4369 adbd 5184 a93b 09bd 833d
00000030: 9d56 1dbe 38e3 1f3d e01b 78bd 7391 4f3d
00000040: d6c4 e9bd bd1b 2f3d 0640 a03d 65be 9fbd
00000050: afb7 7abd 7cf3 10be 0167 9bbd cd9c 063d
00000060: 7198 c63d 5a86 6bbd 93cd 0abe 0642 823d
00000070: 7b6a e2bd 0bd4 ffbd 8e28 283d 95b8 2c3b
00000080: 10ae 22be a488 27be 80bc a73b 88fc d73c
00000090: f513 0fbe 6f4b 3dbb ef08 75bb e0ad b2bc
000000a0: 2be8 02be f257 1b3e e6b7 0abe f735 03bd
000000b0: f258 723d 6dd5 9f3d 921b 373d 197a 18be
000000c0: 0d76 24be 7796 6b3d 478f 9dbd 5c2d aebd
000000d0: 4f8c dcbd 13ce dabd 0d97 813d 6266 5c3d
000000e0: 6123 bebd 5ef8 933c af72 413d 9e53 0fbe
000000f0: a8b5 143d d1b7 d5bd 6c15 5bbd 24ee 0dbe
00000100: 7fc7 fe3c 7025 143d 5865 cdbc debe 803c
00000110: 64cd 06be 2f60 a73d d31e 7b3b 744b e8bd
00000120: c5da a7bd 0f56 923d 52b4 e1bc 80c1 dbbd
00000130: 3025 1dbe f3d4 9bbd f8c2 b1bd 2367 9fbd
00000140: 31c3 e33a 6ec7 43bd 51c6 893d f13a 8f3d
00000150: 90a1 693d 5e0a 16be 2fe4 c039 ef5d 523d
00000160: 4c7b c2bd 11ad 793d 92c2 6bbd 6f30 e2bd
00000170: 732b cc3c ee79 a8bd d10e 0dbe 7b7a 03be
00000180: d0f4 1a3d ea46 0ebe 3256 ecbc 27e9 593d
00000190: 1212 673c 6cd6 2a3d 5981 b9ba de32 a7bd
000001a0: 8045 cc3d 76ed 883d ebc8 0abe 440b 18be
000001b0: 4c8c 183d 5bd8 3d3d 1b0e adbd ca56 173d
000001c0: da2d 9dbd be23 413d a24c 643d fa51 683d
000001d0: 466b e23b 162a cbbd 4930 abbd 2910 2a3c
000001e0: d417 f0bd f18b a53d 1ee7 4f3d 6564 ab3d
000001f0: ef93 fd3b b9c3 17be 0942 e33b 6b0f a8bd
-0.021576017 -0.11965395 -0.122081585 -0.0028128056 -0.123648174 0.078012794 -0.065123454 0.047269054
0.0482974 -0.08467343 0.005173244 0.0643254 -0.15365072 0.039035052 -0.06057346 0.05067582
-0.114144966 0.042751063 0.078247115 -0.07799987 -0.06121033 -0.14155382 -0.07588006 0.03286438
0.09697045 -0.057501175 -0.13554983 0.06360249 -0.11055466 -0.12491616 0.0410543 0.0026355137
-0.15886712 -0.16360718 0.0051189065 0.026365533 -0.13972457 -0.0028884073 -0.0037389358 -0.021811426
-0.12783878 0.15170267 -0.13546714 -0.032033887 0.059166856 0.078043796 0.044704027 -0.14890327
-0.16060658 0.05751654 -0.076933436 -0.08504745 -0.10768949 -0.10683837 0.06327639 0.053808577
-0.09284092 0.018062767 0.04722851 -0.13996741 0.036306053 -0.10435451 -0.053487226 -0.13860375
0.031100987 0.036168516 -0.025072739 0.015716013 -0.13164288 0.081726424 0.0038317933 -0.113425165
-0.08196024 0.071453206 -0.027551804 -0.107302666 -0.15346217 -0.07608976 -0.086797655 -0.07783344
0.0017376897 -0.047797613 0.06727279 0.06993664 0.057038844 -0.14652392 0.00036791104 0.051359113
-0.09496173 0.060956065 -0.057558604 -0.11044394 0.024923062 -0.08226381 -0.13775183 -0.12839691
0.037831128 -0.13894239 -0.028849695 0.053200867 0.014103429 0.041708395 -0.0014152928 -0.08163999
0.099741936 0.06685917 -0.13553207 -0.14848047 0.037243173 0.04634891 -0.08449956 0.036948003
-0.07674761 0.047153227 0.055737145 0.056718804 0.0069097606 -0.09920137 -0.08358819 0.010379829
-0.11723295 0.08083332 0.05075752 0.08368758 0.0077385823 -0.14820756 0.0069353622 -0.08206066
