models/f1_a2c_checkpoint.pth (torch, 156403 bytes, 11 tensors)

0.weight f4 [128, 15]
0	0x3e1b4dbd	0.15166374
1	0x3e5420c6	0.20715627
2	0xbcb06347	-0.021531714
3	0x3e7f3c8a	0.24925438
4	0x3e18e607	0.14931498
5	0xbdd7629a	-0.10516854
6	0x3cd716bb	0.026255956
7	0xbd8169a9	-0.06318981
8	0x3c730e88	0.0148350075
9	0x3dcd8f5d	0.1003711
10	0x3d9dd8f2	0.07707395
11	0x3e3061c3	0.17224793
12	0x3e578bce	0.21049425
13	0xbe43b275	-0.19111045
14	0xbe670850	-0.22561765
15	0x3e794055	0.24340947
16	0x3e863b11	0.2621694
17	0x3d78aaf6	0.060709916
18	0x3dbd851a	0.09253903
19	0x3df68b88	0.12038332
20	0xbe76c39f	-0.24098061
21	0xbe837626	-0.25676078
22	0x3d72cad8	0.059275478
23	0xbe43b984	-0.19113737
24	0x3e333d9b	0.1750397
25	0x3d05b4a7	0.032642987
26	0x3d579fee	0.052642755
27	0x3e118a71	0.14212967
28	0xbcf1425a	-0.029450584
29	0xbc4524b5	-0.012032677
30	0x3e0f862e	0.14016029
31	0xbe097111	-0.13422038
32	0xbd438855	-0.04773744
33	0x3db3a204	0.087711364
34	0xbe42eb31	-0.19035031
35	0xbdb965c5	-0.09052614
36	0x3b04ea79	0.0020281358
37	0xbd27f9ec	-0.04100983
38	0xbe32b90a	-0.174534
39	0xbcc0c040	-0.023529172
40	0xbdc0d277	-0.09415143
41	0x3e83a103	0.2570878
42	0x3dc5eafc	0.0966396
43	0x3d80a209	0.06280906
44	0xbde1c399	-0.110236354
45	0x3e5a0850	0.21292233
46	0xbe2f5192	-0.1712096
47	0xbdb0027c	-0.08594224
48	0x3e1e3887	0.15451251
49	0xbe45f476	-0.19331536
50	0xbc4be460	-0.012444586
51	0xbdab0d58	-0.083521545
52	0x3e0a8cc6	0.13530263
53	0xbcef13dc	-0.029184274
54	0x3dfe1a0e	0.12407313
55	0x3e4751d3	0.19464807
56	0xbe1eed01	-0.15520097
57	0xbe1ac656	-0.15114722
58	0xbd528e8d	-0.05140548
59	0x3c83bb09	0.016080396
60	0xbe091cf1	-0.13389947
61	0x3d5c982e	0.053856067
62	0x3e813c32	0.25241238
63	0x3dc5fcd8	0.09667367
64	0x3e7f4a25	0.24930628
65	0xbe075e3b	-0.1321954
66	0x3e80fe44	0.2519399
67	0x3e4cd834	0.2000435
68	0x3cbb3fde	0.022857603
69	0xbd06d2df	-0.032915946
70	0xbe3da699	-0.18520583
71	0xbe4ef759	-0.20211543
72	0x3e486ab8	0.1957196
73	0x3d7e1eec	0.06204121
74	0xbd0bdf8d	-0.03414874
75	0x3e48a894	0.19595557
76	0x3dda73db	0.10666629
77	0xbe6cff84	-0.23144346
78	0xbc769fd9	-0.015052759
79	0xbe49abd6	-0.19694456
80	0x3e540512	0.20705059
81	0x3c017071	0.007900343
82	0xbdd7d254	-0.10538164
83	0x3ace4327	0.0015736566
84	0x3d9f16e4	0.07768038
85	0x3e844f6c	0.25841844
86	0xbe6a62f9	-0.22889318
87	0xbd41c5bc	-0.047307715
88	0x3e1e7b37	0.1547669
89	0xbb29fc04	-0.0025937567
90	0x3dbcc407	0.09217077
91	0xbe1ecf59	-0.15508784
92	0xbe30e134	-0.17273408
93	0x3e10086a	0.1406571
94	0x3e877a50	0.26460505
95	0xbe75620e	-0.23963186
96	0xbe2b31fa	-0.16718283
97	0xbe0dff00	-0.13866806
98	0x3d9704f0	0.07373989
99	0xbda65609	-0.08121879
100	0x3e3c920f	0.18415092
101	0x3e55653c	0.20839399
102	0x3c74f27a	0.014950389
103	0xbd2620e3	-0.040558707
104	0x3e062239	0.13098992
105	0x3e2cc10e	0.1687052
106	0x3e48b0bb	0.19598667
107	0xbc049799	-0.008092784
108	0xbe210335	-0.1572388
109	0xbe75e393	-0.24012594
110	0xbe5851b3	-0.21124916
111	0xbdbb7130	-0.09152448
112	0xbe3613ec	-0.17781037
113	0xbdd2e003	-0.10296633
114	0xbd982072	-0.074280635
115	0xbe4ec13c	-0.201909
116	0x3dfcc661	0.12342525
117	0xbe17cc3b	-0.14824001
118	0xbe4281fc	-0.18994898
119	0xbd9caee5	-0.07650546
120	0x3e28af1b	0.16473047
121	0x3d31830a	0.04333786
122	0xbcd4ef80	-0.025993109
123	0xbd97fce1	-0.0742128
124	0xbd8ebe94	-0.06969944
125	0xbe7b90eb	-0.24567
126	0xbd4d82a6	-0.050173424
127	0xbd2a8230	-0.041628063
128	0xbe6b2e62	-0.22966912
129	0x3e7c8b56	0.24662527
130	0x3e7bd87c	0.24594301
131	0x3e30a805	0.17251594
132	0xbe3dcacf	-0.18534397
133	0x3e5a343d	0.2130899
134	0xbe6f816e	-0.23389217
135	0x3b84f1cb	0.0040571443
136	0x3d4290e0	0.047501445
137	0xbe214cd9	-0.15751971
138	0x3dbdd436	0.09268992
139	0xbc1d19b3	-0.009588647
140	0xbdd86d95	-0.10567776
141	0x3dace3a7	0.08441859
142	0x3d791308	0.060809165
143	0xbd11317b	-0.03544758
144	0xbe5c7d96	-0.21532282
145	0xbdf2dea1	-0.11858869
146	0x3defc94b	0.117083155
147	0x3d9a2f20	0.0752852
148	0xbde184d9	-0.11011667
149	0x3dda6b4b	0.10664996
150	0x3e284547	0.16432677
151	0xbdb688a1	-0.08912779
152	0x3e031d41	0.12804128
153	0x3e8229ca	0.25422508
154	0x3e2dc6f4	0.16970426
155	0xbe63b1c5	-0.22235782
156	0xbcc2d527	-0.02378328
157	0x3e01e461	0.12684776
158	0xbdd5f2a1	-0.104466684
159	0xbdc742a5	-0.09729508
160	0x3d8e15de	0.069377646
161	0x3b0a6505	0.0021117341
162	0xbda975e3	-0.08274438
163	0x3e27f64c	0.16402549
164	0x3dbc7c46	0.09203391
165	0x3e1ef636	0.1552361
166	0x3e7c584c	0.24643058
167	0xbdc2fe67	-0.0952118
168	0x3d0e4365	0.03473224
169	0x3d791878	0.06081435
170	0x3cf49243	0.0298549
171	0x3ca1c74a	0.019748349
172	0x3e3b34ee	0.1828191
173	0x3e4fce95	0.20293649
174	0xbe0d0da5	-0.13774736
175	0x3d81ee35	0.063442625
176	0xbda2c284	-0.07947257
177	0xbd98ed02	-0.07467081
178	0xbd991591	-0.074748166
179	0xbe1d637a	-0.15369979
180	0x3c8317d3	0.016002571
181	0xbda2dcf1	-0.079522975
182	0x3d65aee1	0.05607498
183	0xbdbfa409	-0.09357459
184	0x3dfa9267	0.12234955
185	0x3e7d004e	0.24707147
186	0xbe2ee3ad	-0.17079039
187	0xbe34eab3	-0.17667656
188	0xbe4c1380	-0.19929314
189	0xbdfaf8ca	-0.12254484
190	0x3dc3822b	0.09546312
191	0x3d827bd3	0.06371274
192	0x3e62b962	0.2214103
193	0x3ccdc581	0.025118591
194	0xbe6245e8	-0.2209698
195	0x3e0e29ef	0.13883184
196	0x3e4e3ba3	0.20139937
197	0x3e3e8f1f	0.18609284
198	0x3d7902fb	0.060793858
199	0xbe4a2184	-0.19739348
200	0x3dcf0820	0.101089716
201	0x3e4f9bc6	0.20274267
202	0xbd0be88b	-0.034157317
203	0x3e7f3a4c	0.24924582
204	0xbe3268f7	-0.17422853
205	0x3e55f472	0.2089403
206	0x3e1e8a41	0.15482427
207	0xbd39b47f	-0.04533815
208	0xbdbda640	-0.09260225
209	0xbe7a1d59	-0.24425258
210	0xbd5f3d88	-0.05450204
211	0x3d4c5cd7	0.049893226
212	0xbdd7383f	-0.10508775
213	0xbe47a9a0	-0.194983
214	0x3dbaaf9b	0.09115525
215	0x3c0ef813	0.008726138
216	0xbe50c91b	-0.20389216
217	0x3c675c94	0.014121193
218	0x3e3399ee	0.17539188
219	0x3e577e19	0.21044196
220	0x3e4c73e5	0.19966085
221	0x3dac8657	0.08424061
222	0xbd8af8a0	-0.06785703
223	0x3e0bc6cc	0.13650054
224	0x3dbee312	0.09320654
225	0x3e044183	0.12915616
226	0x3d55dab3	0.05221052
227	0x3e606a93	0.21915655
228	0x3db4287e	0.08796786
229	0xbc775603	-0.01509619
230	0x3e2d5d6c	0.16930169
231	0x3e124906	0.14285669
232	0xbe305be3	-0.17222552
233	0xbcae70db	-0.021294048
234	0xbdec67fc	-0.11543271
235	0xbe335d33	-0.17516021
236	0x3b7032a0	0.0036651269
237	0xbd19ad5e	-0.03751885
238	0xbc3732fd	-0.01118159
239	0xbe803ca1	-0.25046256
240	0xbdcc97ec	-0.09989914
241	0xbc6b1fd5	-0.014350851
242	0xbe6faee3	-0.23406558
243	0xbe6d2c1f	-0.23161362
244	0xbd4e8e44	-0.050428644
245	0x3e01d0e5	0.12677343
246	0xbe2bd505	-0.16780479
247	0xbe332f83	-0.17498593
248	0xbdb8175d	-0.08988831
249	0x3e217b23	0.15769629
250	0xbe4ffa9a	-0.2031044
251	0x3e880738	0.26568007
252	0x3e598051	0.21240355
253	0x3deb5e08	0.114925444
254	0xbe288624	-0.1645742
255	0xbe3cd292	-0.18439701

0.bias f4 [128]
0	0xbd7459e9	-0.059656058
1	0x3e88150a	0.26578552
2	0xbd4c9bb0	-0.049953163
3	0x3ddbb432	0.10727729
4	0xbdfce148	-0.123476565
5	0x3e5c37c7	0.21505652
6	0x3de96ec3	0.11398079
7	0x3d1ea701	0.038733486
8	0x3e16bfd2	0.14721611
9	0x3dc80144	0.097658664
10	0x3e6848d7	0.22684036
11	0x3dd0de9d	0.1019871
12	0x3d744b6d	0.059642244
13	0xbd8d68ca	-0.069047526
14	0xbdd69cb6	-0.10479109
15	0xbdb682c0	-0.08911657
16	0x3d924377	0.07141774
17	0xbde7757d	-0.11301706
18	0xbce8a88b	-0.02840068
19	0xbdcddc68	-0.10051805
20	0x3e1e3690	0.15450501
21	0xbe3a0e5c	-0.1816954
22	0x3de6dd9f	0.112727396
23	0xbe38bee8	-0.18041575
24	0xbe3cd931	-0.18442227
25	0x3c27990d	0.010229361
26	0x3e7a207c	0.24426454
27	0xbe78bc95	-0.24290688
28	0xbdea8e86	-0.114529654
29	0x3c0b3ce0	0.0084984
30	0xbe4e21b2	-0.20130041
31	0xbe33fbb0	-0.1757648
32	0xbd74687b	-0.059669953
33	0x3e1dd94f	0.15414928
34	0x3e070c56	0.131883
35	0x3d0fdfb1	0.035125438
36	0xbe47fecc	-0.19530791
37	0x3e79484b	0.24343984
38	0x3d99786a	0.0749367
39	0x3e31f53b	0.17378704
40	0xbdcd5af0	-0.100271106
41	0xbdabb7a6	-0.083846375
42	0x3cf7a1fb	0.030228605
43	0x3e78e54c	0.2430622
44	0x3e8260e0	0.25464535
45	0x3e730a31	0.23734356
46	0xbdf5af82	-0.11996366
47	0xbe8104c1	-0.2519894
48	0xbe484312	-0.19556835
49	0xbe6d0a83	-0.23148541
50	0x3e76b00c	0.24090594
51	0x3d589c8e	0.052883677
52	0x3e462666	0.19350585
53	0xbdfdc32d	-0.123907425
54	0x3c432513	0.011910695
55	0x3d48cb37	0.049021926
56	0xbd97e734	-0.07417145
57	0x3dce31eb	0.10068115
58	0xba6a9c00	-0.00089496374
59	0x3da81f6e	0.0820912
60	0xbd1e49ee	-0.038644724
61	0x3e20979f	0.15682839
62	0x3e61486e	0.22000286
63	0xbe3c95c5	-0.18416508
64	0xbd355854	-0.04427369
65	0xbd89678f	-0.06709205
66	0xbe4f3eb4	-0.20238763
67	0xbd5197cc	-0.051170155
68	0x3d702b06	0.05863478
69	0xbd044fa4	-0.032302514
70	0xbdc37bc7	-0.09545093
71	0x3b72b643	0.0037034906
72	0x3db48634	0.0881466
73	0xbcd0516f	-0.025429456
74	0x3e802585	0.25028625
75	0x3e280380	0.16407585
76	0x3e892ef2	0.2679363
77	0x3e662097	0.2247337
78	0x3d3393fd	0.043842304
79	0xbe721a96	-0.23642954
80	0x3dcf6e99	0.10128517
81	0xbe1e5303	-0.15461354
82	0x3e6651a0	0.22492075
83	0x3d24280b	0.04007725
84	0xbe6e0ef9	-0.23247899
85	0x3d38061d	0.044927705
86	0x3e604cdb	0.21904318
87	0x3da035a2	0.0782273
88	0xbe01576e	-0.12631008
89	0xbe6735b5	-0.22579081
90	0xbe81b1b3	-0.25330886
91	0x3e3aaec1	0.18230726
92	0x3e2319a9	0.15927757
93	0x3e469e14	0.1939624
94	0x3cebf310	0.028802425
95	0xbdc41a5f	-0.095753424
96	0x3d6d62d8	0.057955593
97	0x3d4fcd59	0.050732944
98	0x3d765dae	0.060147934
99	0xbd99d11c	-0.075105876
100	0x3e6384b7	0.22218595
101	0xbe817c70	-0.2529025
102	0x3d97befd	0.07409475
103	0xbd7937ab	-0.060844105
104	0xbdaf7087	-0.08566385
105	0x3ddcf9c8	0.107898295
106	0xbde7f791	-0.113265164
107	0xbd18bd9a	-0.037290193
108	0x3e229531	0.15877225
109	0x3e0a2dd7	0.13494049
110	0x3e85d58f	0.26139495
111	0x3e213ca0	0.15745783
112	0xbe03c682	-0.12868693
113	0xbe803227	-0.25038263
114	0x3d4f6fb6	0.050643645
115	0xbdeae5bb	-0.11469599
116	0x3e5b52ce	0.21418306
117	0xbc35ac98	-0.011088513
118	0xbd87389b	-0.066025935
119	0xbd9259af	-0.07146012
120	0x3dc4124f	0.095738046
121	0x3d5df37b	0.05418728
122	0x3b2b07a8	0.0026097093
123	0xbe0ca18b	-0.13733499
124	0xbdd684c1	-0.104745395
125	0xbc9c20fe	-0.0190587
126	0x3e85f8d4	0.26166403
127	0xbe3c1ff6	-0.18371567

2.weight f4 [128, 128]
0	0xbdbbfacd	-0.09178696
1	0x3d04af7e	0.032393925
2	0xbd7f3ed9	-0.062315796
3	0xbd992db3	-0.074794196
4	0x3c31afa2	0.010845097
5	0xbd146e9c	-0.036238298
6	0x3d4820e2	0.048859484
7	0xbbdbf895	-0.006712983
8	0x3cc2a287	0.02375914
9	0xbd428259	-0.04748759
10	0xbd284a6a	-0.04108659
11	0xbdaa8032	-0.083252326
12	0xbd8484d6	-0.06470649
13	0xbd07bd49	-0.0331395
14	0x3d8f5582	0.06998731
15	0x3da75a35	0.081715025
16	0xbccc96b8	-0.024974212
17	0xbc7b610f	-0.015342965
18	0x3d384c5f	0.04499471
19	0x3d3e21a6	0.04641881
20	0x3d85d7dd	0.06535313
21	0x3d867fa8	0.06567317
22	0x3d744132	0.059632488
23	0xbce0c7e8	-0.027439073
24	0xbc2a800b	-0.010406504
25	0xba547717	-0.0008104904
26	0x3d2068dc	0.0391625
27	0xbd3a0c92	-0.045422144
28	0xbd048e4f	-0.03236228
29	0x3d4baef0	0.04972738
30	0x3d94e72b	0.07270654
31	0x3c9ac4c8	0.01889266
32	0x39020ff6	0.00012403712
33	0xbda7e3e6	-0.08197765
34	0x3c1d1f44	0.009589974
35	0x3d273c55	0.04082902
36	0x3da2d528	0.079508126
37	0x3ca04550	0.0195643
38	0x3cfc7be5	0.030820796
39	0x3ce0eeb8	0.02745758
40	0x3c922fc3	0.01784504
41	0x3d633882	0.055473812
42	0xbb928cb8	-0.0044723414
43	0x3d52c108	0.05145362
44	0x3d0dfd2e	0.03466528
45	0xbc81b9d3	-0.015835678
46	0xbd4f6095	-0.050629217
47	0x3c43743e	0.01192957
48	0x3d3386fb	0.0438299
49	0xbcf4d7a1	-0.029887976
50	0xbd49f729	-0.049307976
51	0x3ceaacc5	0.028646836
52	0xbd75d1df	-0.0600146
53	0x3d21cc67	0.039501574
54	0xbda62764	-0.08112982
55	0xbd060375	-0.03271814
56	0xbd93d7e4	-0.07218912
57	0x3b2a54c8	0.0025990475
58	0x3da5be05	0.08092884
59	0xbdc97711	-0.09837163
60	0x3bd4d200	0.0064947605
61	0xbda700aa	-0.081544235
62	0xbd2bf013	-0.041977
63	0xbb0cacc2	-0.0021465276
64	0x3ccd8a10	0.025090247
65	0x3a9b7f9f	0.0011863596
66	0xbd9a26b7	-0.075269155
67	0xbd100dc0	-0.035169363
68	0x3d1e0b26	0.03858485
69	0x3d19dde9	0.037565146
70	0xbd9d838f	-0.076911084
71	0x3aa5c831	0.0012648163
72	0x3d93e133	0.07220688
73	0xbdb46810	-0.08808911
74	0x3cfcd689	0.030864017
75	0xbc0dafd3	-0.008647877
76	0xbc72104b	-0.014774392
77	0xbceeabcc	-0.029134654
78	0xbcfeab5b	-0.031087568
79	0xbd349f4b	-0.044097226
80	0xbd4b9d64	-0.049710646
81	0x3dab09d3	0.08351483
82	0xbdb82534	-0.08991471
83	0x3cd39d20	0.025831759
84	0xba9d7514	-0.0012013041
85	0x3c986ffc	0.018608086
86	0x3d835729	0.06413109
87	0xbd2be937	-0.041970458
88	0x3c8a57de	0.016887601
89	0xbd61ad0d	-0.055096675
90	0x3cc6c3b6	0.024263244
91	0xbcaa3e4d	-0.02078166
92	0x3d806842	0.062698856
93	0x3d86aaf9	0.06575579
94	0xbcc4fb7b	-0.024045696
95	0xbd2e0a8e	-0.042490534
96	0x3d6db132	0.058030315
97	0x3cfe45be	0.031039115
98	0x3cb7949c	0.02240973
99	0x3d3d4cf9	0.046215985
100	0x3ce3150a	0.027719993
101	0xbd8b3660	-0.067974806
102	0x3d860dcf	0.065456025
103	0xbd5066cc	-0.050879285
104	0x3d5ff3ca	0.054675855
105	0x3d97361d	0.07383368
106	0xbd8fd713	-0.07023444
107	0xbd60c702	-0.05487729
108	0xbc57fef9	-0.013183349
109	0xbc868753	-0.01642195
110	0x3811de80	3.4777913e-05
111	0x3c3734cc	0.011182021
112	0xbd318aa3	-0.043345105
113	0xbd10e1f0	-0.03537172
114	0xbd12151a	-0.035664655
115	0xbd637819	-0.055534456
116	0x3cd2500a	0.025672931
117	0x3d82a49b	0.06379052
118	0xbc9ac2a2	-0.018891636
119	0x3d1182bb	0.035525065
120	0xb9ef7804	-0.0004567505
121	0xbd877cc7	-0.06615596
122	0xbdc24274	-0.09485331
123	0x3cfd5bd0	0.030927569
124	0xbd9d704f	-0.07687437
125	0x3d8b59e3	0.06804254
126	0xbd04b048	-0.032394677
127	0x3d1c18be	0.038109533
128	0x3d3ebcc6	0.046566747
129	0x3ba5a440	0.0050549805
130	0x3d9dcfb9	0.077056356
131	0x3c9d32d0	0.019189268
132	0x3da25927	0.07927161
133	0x3b85d940	0.004084736
134	0xbd9c2be1	-0.07625557
135	0xbd13c66f	-0.036077913
136	0xbd9d04a5	-0.076669015
137	0x3c7d4a20	0.015459567
138	0x3c970efc	0.018439762
139	0xbd835cc7	-0.0641418
140	0xbdb2bd59	-0.087275214
141	0x3c021d48	0.0079415515
142	0x3d10af1a	0.03532324
143	0x3d59e27a	0.0531945
144	0x3c2e5b88	0.01064194
145	0xbc1a08e0	-0.00940153
146	0x3d64f1c2	0.05589462
147	0x3c405628	0.011739291
148	0xbbbe5330	-0.0058082566
149	0xbd1e81e0	-0.038698077
150	0xbd8a5277	-0.0675401
151	0x3d7667b2	0.060157485
152	0xbd12b34d	-0.035815526
153	0x3db27b7f	0.08714961
154	0xbd4fadef	-0.050702985
155	0x3d4d5c0a	0.050136603
156	0x3d8656c5	0.06559519
157	0xbcbf78b4	-0.023372985
158	0xbbed2340	-0.007236868
159	0x3da94ebd	0.08266971
160	0xbb784a20	-0.0037885979
161	0x3d9c8b51	0.0764376
162	0xbc8db8ac	-0.017299972
163	0xbd9f20d3	-0.077699326
164	0xbc81b90c	-0.015835308
165	0x3d6164de	0.055027835
166	0x3bf78cf0	0.007554643
167	0x3d4eaa7e	0.050455563
168	0xbd430d5a	-0.047620155
169	0xbc9756d4	-0.01847402
170	0xbd3c157f	-0.045918938
171	0xbc0120d8	-0.007881366
172	0xbd48b7a9	-0.049003277
173	0xbcfebaa0	-0.03109485
174	0x3d1fba02	0.03899575
175	0xbdab0dff	-0.08352279
176	0x3d9f10ab	0.07766851
177	0xbd21fe7f	-0.039549347
178	0xbd8be019	-0.068298526
179	0x3c1dfb18	0.009642385
180	0xbc45a6d8	-0.012063704
181	0x3d938417	0.072029285
182	0xbc2e0418	-0.010621093
183	0xbba23040	-0.0049495995
184	0x3cf5761c	0.029963546
185	0x3d8fb8fd	0.070177056
186	0x3d916669	0.07099611
187	0xbd1f1a5b	-0.038843494
188	0xbcfa451c	-0.030550532
189	0x3db05acb	0.086110674
190	0xbd18cb94	-0.037303522
191	0xbd10dd4c	-0.035367295
192	0xbd41797e	-0.047235005
193	0x3d85634d	0.06513081
194	0x3d4ce5f6	0.050023995
195	0xbd0b37a1	-0.0339886
196	0x3da14237	0.078739576
197	0xbda40d57	-0.08010357
198	0xbace99c0	-0.0015762374
199	0xbcfdf43c	-0.03100025
200	0xbcc8a6d4	-0.024493612
201	0xbd8ebb5a	-0.06969328
202	0xbbe260d0	-0.0069085136
203	0x3b6c8aa0	0.003609337
204	0xbd6ca7ba	-0.057777144
205	0xbc8156ec	-0.015788518
206	0xbd3ba05c	-0.045807227
207	0xbd9266ba	-0.071485
208	0xbd936d3e	-0.07198571
209	0x3ceec4a8	0.029146507
210	0xbcdac96c	-0.026707374
211	0x3d3fc576	0.046819173
212	0xbcbe6844	-0.023243077
213	0x3d64c77e	0.055854313
214	0xbca40ba0	-0.020025074
215	0xbd688579	-0.056767914
216	0xbda8b9b0	-0.08238542
217	0xbcb02034	-0.02149973
218	0xbcd3d9c8	-0.025860682
219	0xbbcbd810	-0.006220825
220	0xbda29a72	-0.07939614
221	0xbbc12990	-0.005894847
222	0x3d6aa6a6	0.057287835
223	0xbba0ec10	-0.0049109533
224	0x3d305bd2	0.043056317
225	0xbd32e05b	-0.043670993
226	0x3cc0ba18	0.023526236
227	0xbda85b19	-0.082205005
228	0xbc97fd68	-0.01855345
229	0xbd645594	-0.055745676
230	0x3d559d86	0.05215218
231	0x3c639b00	0.013891935
232	0x3d3de60a	0.04636196
233	0xbdaed268	-0.085362256
234	0xbc750fe0	-0.014957398
235	0xbd264a5c	-0.04059826
236	0x3a927c40	0.0011175945
237	0x3cc59458	0.024118587
238	0xbd44703d	-0.0479586
239	0x3db4821d	0.0881388
240	0xbc2c1940	-0.010504067
241	0xbd074de7	-0.033033278
242	0xbd3df1b3	-0.04637308
243	0x3d66d6fe	0.056357376
244	0x3b010b20	0.001969047
245	0x3d6589ea	0.05603973
246	0x3db1ed6d	0.086878635
247	0x3da363dd	0.07978032
248	0xbcf0c2d4	-0.029389776
249	0x3cd00040	0.025390744
250	0xbbebbf90	-0.007194467
251	0xbc5edcf8	-0.013602488
252	0x3d8ec8f7	0.06971925
253	0x3c3dfa18	0.0115952715
254	0xbd4593e3	-0.04823674
255	0x3d33f2c6	0.0439327

2.bias f4 [128]
0	0xbb4ce680	-0.0031265318
1	0xbd9cb04a	-0.07650812
2	0xbd623b8a	-0.055232562
3	0x3c34d1b5	0.011036326
4	0xbd8ff26a	-0.07028659
5	0xbcf9b5ab	-0.030482134
6	0xbd5ae6b6	-0.05344268
7	0xbc8290f0	-0.015938252
8	0xbd85fa64	-0.06541899
9	0x3d265487	0.040607955
10	0xbd1129cb	-0.035440248
11	0x3da1eadb	0.07906123
12	0x3ce7746e	0.02825376
13	0xbd1fbff1	-0.03900141
14	0xbd8df973	-0.06932344
15	0xbc092ce9	-0.008372524
16	0x3da57700	0.08079338
17	0xbd82536b	-0.06363567
18	0xbd96ce24	-0.07363537
19	0x3ce5cca1	0.028051676
20	0x3db3a392	0.08771433
21	0xbda9252e	-0.082590446
22	0x3dc3d34f	0.09561788
23	0x3ca73395	0.020410338
24	0x3d84ac50	0.064781785
25	0x3d0c0d4f	0.03419238
26	0x3cd807b8	0.026370868
27	0xbd9e5588	-0.077311575
28	0xbcf3da72	-0.029767249
29	0x3dbd9ef7	0.09258836
30	0xbd575a7f	-0.05257654
31	0x3d0006f3	0.031256627
32	0xbae6d22c	-0.0017610244
33	0x3db7f9f6	0.08983223
34	0xbd7222e7	-0.059115317
35	0xbd536065	-0.0516056
36	0x3c1ce92e	0.009577079
37	0xba8ce980	-0.0010750741
38	0xbd8eab87	-0.0696631
39	0x3cb745c4	0.022372134
40	0xbd8caae9	-0.06868536
41	0xbdb8729f	-0.09006237
42	0x3a293a32	0.000645551
43	0x3bcbf4d4	0.006224254
44	0xbc8d4b05	-0.017247686
45	0x3dbd58b4	0.092454344
46	0x3ccdc8f5	0.025120238
47	0xbdae3b4f	-0.08507406
48	0xbd1daba7	-0.03849378
49	0x3c611afd	0.013739345
50	0x3da1eabb	0.079060994
51	0x3aa54500	0.0012609065
52	0xbc652113	-0.013984936
53	0x3d0c5de8	0.034269243
54	0x3db288f0	0.08717525
55	0x3c4b6035	0.012413074
56	0x3ce30da5	0.027716467
57	0x3d08c829	0.033394013
58	0x3d566b0f	0.052348193
59	0x3d2d5332	0.04231567
60	0xbc472bb0	-0.012156412
61	0x3cd072e7	0.025445415
62	0xbda5a883	-0.08088782
63	0x3c276efa	0.01021933
64	0xbc332c06	-0.010935789
65	0xbc845bac	-0.016156994
66	0x3d2329b5	0.039834697
67	0xbc612c68	-0.013743497
68	0xbd893ed8	-0.067014396
69	0x3d74196d	0.05959456
70	0xbd2c5bf6	-0.04207989
71	0xbc88025c	-0.016602688
72	0xbbc86a91	-0.0061162193
73	0x3d84767d	0.06467912
74	0xbc23144a	-0.009953568
75	0x3cfe55ea	0.031046826
76	0x3a543b4e	0.0008095995
77	0xbd573133	-0.052537154
78	0x3c905a41	0.017621161
79	0xbd39c32c	-0.045352146
80	0xbdb586bd	-0.0886359
81	0x3d3a2304	0.04544355
82	0x3cca7be2	0.024717275
83	0x3d8bc2cf	0.06824266
84	0x3d8dc3c6	0.069221064
85	0x3c757798	0.014982127
86	0xbc282109	-0.010261782
87	0x3d857488	0.06516367
88	0xbcd77dc5	-0.026305089
89	0x3d453ead	0.048155475
90	0xbd71548a	-0.058918513
91	0x3dce138a	0.100623205
92	0x3c6f8930	0.01462011
93	0xbd24928a	-0.040178813
94	0x3c7a3d12	0.015273349
95	0xbd5fbb7b	-0.054622155
96	0x3d2e99f2	0.042627282
97	0xbd914711	-0.07093633
98	0xbd0fd9f4	-0.035119966
99	0xbd1c7e5f	-0.038206454
100	0x3c230612	0.009950178
101	0xbda46989	-0.08027942
102	0xbd50394e	-0.0508359
103	0x3d755508	0.059895545
104	0x3d4d75ac	0.05016105
105	0x3cc9899c	0.02460175
106	0xbd114ff3	-0.035476636
107	0xbb06fcf0	-0.002059754
108	0xbda6731e	-0.081274256
109	0xbd932001	-0.07183839
110	0xbca01c30	-0.01954469
111	0x3ce8efd8	0.028434679
112	0x3d373578	0.044728726
113	0x3c3bc489	0.011460432
114	0x3d8c0f98	0.06838912
115	0xbda469ee	-0.08028017
116	0x3d9bf3e3	0.07614877
117	0xbd823b68	-0.06358987
118	0x3d079d79	0.033109162
119	0xbd6087e0	-0.05481708
120	0x3d5208b4	0.05127783
121	0xbbbff46d	-0.0058579952
122	0x3d9a49c9	0.07533605
123	0x3d243183	0.04008628
124	0x3d55e15e	0.05221688
125	0xbcdf8c52	-0.02728859
126	0xbc1b5d46	-0.009482687
127	0xbd72d310	-0.059283316

4.weight f4 [5, 128]
0	0x3da30d3c	0.07961509
1	0xbdb48cf3	-0.088159464
2	0x3d65a660	0.05606687
3	0x3d01d3be	0.031696074
4	0x3d85ba62	0.0652969
5	0xbcf438f5	-0.029812315
6	0xbdad672e	-0.084669456
7	0x3b9ae0ee	0.0047265207
8	0x3d44825e	0.04797589
9	0x3d3190fa	0.04335115
10	0xbdbf26a8	-0.09333545
11	0x3dae9e03	0.08526232
12	0xbd62896b	-0.055306833
13	0x3ce7e71c	0.028308444
14	0x3d90d1f7	0.070712976
15	0x3d567c99	0.05236492
16	0x3cd5d638	0.026103124
17	0xbcadb708	-0.02120544
18	0xbdc78a3a	-0.097431615
19	0xbdcc86c3	-0.09986641
20	0xbda6f27a	-0.081517175
21	0xbca148b8	-0.019687995
22	0xbc648cbe	-0.013949571
23	0xbd887b78	-0.06664175
24	0x3d92163b	0.071331464
25	0x3d4255a2	0.047444947
26	0x3d5a1b57	0.05324873
27	0x3d27d881	0.04097796
28	0x3cef433f	0.02920687
29	0xbdc516d6	-0.09623496
30	0xbdb966dc	-0.09052822
31	0xbd063144	-0.032761827
32	0xbd69155c	-0.056905136
33	0x3d15c762	0.0365671
34	0x3d235072	0.03987164
35	0xbd3a92fe	-0.04555034
36	0xbdc384aa	-0.09546788
37	0xbb8d9ff0	-0.0043220446
38	0xbcc22710	-0.023700267
39	0x3d80b42f	0.06284367
40	0x3d6cf60a	0.05785183
41	0xbc29be09	-0.010360249
42	0xbdb46db1	-0.088099845
43	0xbdd90cea	-0.10598166
44	0x3ca7bb65	0.020475099
45	0xbcb8d7e4	-0.022563882
46	0x3b2887c5	0.002571569
47	0xbc2683fc	-0.010163303
48	0x3db12fda	0.08651705
49	0xbd056c96	-0.03257426
50	0xbd576415	-0.05258568
51	0xbd6a85f0	-0.05725664
52	0xbd8884db	-0.06665965
53	0xbdabf4c0	-0.08396292
54	0x3d2dbd6f	0.042416986
55	0xbd58e39e	-0.052951448
56	0xbdbc4556	-0.09192912
57	0x3d811a9e	0.06303905
58	0x3d1dbc40	0.038509607
59	0xbd47bf88	-0.048766643
60	0xbc182ee0	-0.00928852
61	0xbd03adc3	-0.032148134
62	0xbdaf9323	-0.08572986
63	0xbd9d8f88	-0.07693392
64	0xbd6da599	-0.058019254
65	0xbd417d78	-0.047238797
66	0xbda410da	-0.08011027
67	0xbd63886e	-0.05555003
68	0xbd7732f3	-0.060351323
69	0x3d4fd2ad	0.050738025
70	0xbd4bfb57	-0.049800243
71	0x3c2bdbd8	0.010489427
72	0x3d755868	0.059898764
73	0x3d46ac53	0.048504185
74	0xbd983016	-0.07431047
75	0xbd1cb765	-0.038260836
76	0x3d366fcf	0.044540223
77	0xbcd18097	-0.025574012
78	0x3ce2ce2b	0.0276862
79	0x3d9dd962	0.07707478
80	0xbdac8ac0	-0.08424902
81	0x3d22429b	0.0396143
82	0xbd7f142c	-0.062275097
83	0x3d17ba95	0.037043173
84	0xbdd6283f	-0.10456895
85	0x3c8bd678	0.01707004
86	0x3daa5d66	0.083185956
87	0x3d865c91	0.065606244
88	0xbd4be019	-0.049774263
89	0x3d784390	0.060611308
90	0xbdc0c45b	-0.09412452
91	0xbaf203c0	-0.0018464252
92	0xbd63b423	-0.055591714
93	0xbdad834a	-0.08472307
94	0x3ccac611	0.024752649
95	0xbdc16ac5	-0.09444193
96	0xbcd42a70	-0.025899142
97	0xbd1d69e2	-0.038431056
98	0xbd1d1cd0	-0.038357556
99	0xbd4969bb	-0.049173098
100	0xbda5e577	-0.081004076
101	0xbd923092	-0.0713817
102	0x3d1e938e	0.038714938
103	0xbddf01cc	-0.108890146
104	0xbd9cd534	-0.07657853
105	0xbc633a00	-0.013868809
106	0x3d9d2a02	0.07674028
107	0xbd08b365	-0.03337421
108	0xbdad053a	-0.084482625
109	0xbb174200	-0.002308011
110	0x3c159268	0.009129144
111	0x3caa504b	0.02079024
112	0x3d185829	0.03719345
113	0x3c9db6f5	0.01925228
114	0xbda7c30c	-0.08191499
115	0xbd066bb6	-0.032817565
116	0xbdbfbe87	-0.09362512
117	0xbb9c4eba	-0.004770127
118	0x3c944728	0.018100336
119	0x3d5aa83b	0.053383093
120	0x3c99a692	0.018756185
121	0xbdc266c8	-0.0949226
122	0xbd446303	-0.047945987
123	0xbd93a7a1	-0.07209707
124	0x3d07932a	0.03309933
125	0xbdb1e171	-0.08685578
126	0x3d4b86af	0.04968899
127	0xbd3e72a5	-0.046496052
128	0x3d72ff14	0.059325293
129	0x3d31ab66	0.04337635
130	0xbcb98ca7	-0.022650076
131	0xbcb8f8de	-0.022579607
132	0xbd29b200	-0.04142952
133	0x3d5d06d2	0.053961582
134	0x3cf915f6	0.03040598
135	0xbd5ac19a	-0.05340729
136	0x3d78b11e	0.060715787
137	0xbb2283c5	-0.002479778
138	0xbd8c51d4	-0.06851545
139	0xbd87e187	-0.06634813
140	0x3c9b139a	0.018930245
141	0xbcdc8872	-0.026920531
142	0x3d75bb91	0.05999333
143	0x3c9847ec	0.018588983
144	0x3cac3bc3	0.02102459
145	0xbd1fe393	-0.03903539
146	0x3d9a55a3	0.07535865
147	0xbda0d32e	-0.07852779
148	0x3cf60bc1	0.030034902
149	0xbd2ccafd	-0.042185772
150	0x3cdd2ca2	0.026998822
151	0xbd940240	-0.07226992
152	0x3d47eba0	0.048808694
153	0x3b8b8966	0.0042583225
154	0x3bbaa76d	0.0056962282
155	0xbd81e0b3	-0.06341686
156	0x3d806ba3	0.0627053
157	0x3d3f4fb9	0.04670689
158	0xbd2163a3	-0.03940166
159	0xbdafd844	-0.08586171
160	0xbd3ca23f	-0.046053167
161	0xbdbff3a7	-0.09372645
162	0xbd8da253	-0.069157265
163	0x3c6bf47a	0.0144015495
164	0xbba42d50	-0.0050102845
165	0xbd9c4dc1	-0.07632018
166	0x3cc1f810	0.023677856
167	0xbd7e944c	-0.062153146
168	0xbd3da94a	-0.046304025
169	0x3d5b504d	0.053543378
170	0xbd2aeac0	-0.04172778
171	0xbd79754c	-0.06090288
172	0xbd7faf09	-0.062422786
173	0xbd7ef158	-0.062241882
174	0xbcd408ae	-0.025883045
175	0xbdb4115e	-0.08792375
176	0xbda69749	-0.08134324
177	0x3d06f120	0.0329448
178	0x3c271536	0.010197928
179	0xbcc46e20	-0.023978293
180	0x3d21a4e4	0.039463893
181	0x3baa5b70	0.0051988885
182	0xbd8cb793	-0.068709515
183	0x3d2087ec	0.039192125
184	0x3d50895f	0.050912257
185	0xbd67f0d7	-0.056626167
186	0xbcc4df21	-0.024032177
187	0x3c6f0c2f	0.014590307
188	0x3d5d3b56	0.054011665
189	0xbdb5e05e	-0.08880685
190	0x3db03dcf	0.08605539
191	0xbd73ca1e	-0.059518926
192	0xbd72023b	-0.05908416
193	0xbdb45cd3	-0.08806767
194	0xbca2a653	-0.0198547
195	0x3d27c8e6	0.040963076
196	0xbd3b944e	-0.04579573
197	0x3b5ef842	0.0034022485
198	0x3ca37a0a	0.019955654
199	0x3d3bfdce	0.045896344
200	0xbd10481e	-0.035225026
201	0x3b957f8c	0.004562324
202	0xbcf29a79	-0.029614674
203	0xbdac2e92	-0.0840732
204	0xbd27afa7	-0.040939
205	0xbd429609	-0.047506366
206	0x3d5e3d32	0.05425758
207	0xbdb0a0f1	-0.08624447
208	0x3d8089c3	0.06276276
209	0x3d9fa8c3	0.077958606
210	0xbbc00ed2	-0.0058611417
211	0x3cf39c07	0.029737486
212	0xbd920e56	-0.071316406
213	0xbcf9519f	-0.030434428
214	0x3d52e27a	0.051485516
215	0xbd00acb9	-0.03141472
216	0xbc8131a3	-0.015770739
217	0xbd46d7cf	-0.048545655
218	0x3d70a454	0.058750466
219	0x3d2a0e80	0.041517735
220	0xbcae9168	-0.02130957
221	0x3d7c8256	0.061647736
222	0x3db03cf2	0.086053744
223	0x3da3e7c2	0.08003189
224	0xbd06313f	-0.03276181
225	0xbc0abc10	-0.008467689
226	0x3d871850	0.06596434
227	0xbd4cb80f	-0.04998022
228	0xbd926778	-0.07148641
229	0xbd4f1555	-0.050557453
230	0x3c510ac0	0.012758911
231	0xbd66af35	-0.056319434
232	0xbccd98e6	-0.025097322
233	0xbcf20edc	-0.029548101
234	0xbcf55254	-0.029946484
235	0xbd0b0344	-0.03393866
236	0xbd16626c	-0.036714956
237	0xbda40f2a	-0.08010705
238	0x3d49039a	0.0490757
239	0xbd5aa251	-0.053377453
240	0x3d8ede99	0.06976051
241	0x3d035fed	0.032073904
242	0x3d65993e	0.056054346
243	0x3d4848c6	0.048897527
244	0x3c8f108b	0.017463943
245	0x3d489da4	0.048978463
246	0x3c92c462	0.017915908
247	0xbd952e20	-0.07284188
248	0xbd11dcfc	-0.035611138
249	0xbd793cea	-0.060849108
250	0x3d3b3872	0.045708127
251	0xbd9445c9	-0.07239873
252	0xbccbb0fe	-0.02486467
253	0x3c72998e	0.014807118
254	0x3d2acb6a	0.041697897
255	0xbda1c32a	-0.07898553

4.bias f4 [5]
0	0xbcb50381	-0.022096397
1	0xbdb6b0b1	-0.0892042
2	0x3d807f72	0.06274308
3	0xbd600e1b	-0.054700952
4	0xbd0b2b84	-0.033977047

0.weight f4 [128, 15]
0	0x3e7e1d34	0.24815828
1	0xbdd5521f	-0.10416054
2	0x3e740260	0.23829031
3	0xbe11a4d5	-0.14223035
4	0x3ddcc4d9	0.10779733
5	0xbdd950ec	-0.10611138
6	0x3e12e474	0.1434496
7	0xbc09688d	-0.008386743
8	0x3dbe46f2	0.092908755
9	0x3cc0806f	0.023498742
10	0x3de6b273	0.11264505
11	0xbe2f2b7b	-0.1710643
12	0x3dd0f486	0.10202889
13	0x3e96e1bb	0.29469094
14	0x3e02864f	0.12746547
15	0x3c9312d4	0.017953314
16	0xbdb6b4c8	-0.089212
17	0x3e61fa2a	0.22068086
18	0x3e7acccd	0.24492188
19	0x3e9885fb	0.2978972
20	0x3dec0251	0.11523879
21	0xbe581a1e	-0.21103713
22	0xbe516fe7	-0.20452844
23	0xbe3c237c	-0.18372911
24	0x3e63b375	0.22236426
25	0x3dfd277a	0.12361045
26	0x3e08271f	0.13296174
27	0x3cc8aa04	0.024495132
28	0xbdbe2254	-0.09283891
29	0xbe348511	-0.17628886
30	0x3df62e5d	0.12020562
31	0xbd82c953	-0.06386056
32	0xbc059fa6	-0.008155739
33	0x3e32f979	0.17477979
34	0x3c1cb55f	0.009564727
35	0x3e00c98d	0.12576886
36	0xbdfc9738	-0.1233353
37	0xbe53c723	-0.20681433
38	0xbe87ebee	-0.26547188
39	0x3d60a7a4	0.054847375
40	0x3e9a6087	0.3015177
41	0xbd8beba1	-0.06832052
42	0xbd92e11c	-0.071718425
43	0x3e9e9dfa	0.30979902
44	0x3e0afea9	0.13573708
45	0xbdec1c2c	-0.11528811
46	0x3d5c5593	0.053792547
47	0xbe1604b0	-0.14650226
48	0xbbc37289	-0.0059645814
49	0x3e078999	0.13236083
50	0x3e4935fa	0.19649497
51	0xbd188e7f	-0.03724527
52	0xbdca0db6	-0.098658964
53	0xbd974d34	-0.07387772
54	0x3e58aa6b	0.2115876
55	0x3e1341a8	0.14380515
56	0x3dfe59e7	0.12419491
57	0x3e9d078c	0.3066982
58	0xbe25a377	-0.16175638
59	0x3e88574d	0.26629105
60	0xbe625615	-0.2210315
61	0xbe748ecb	-0.23882596
62	0xbcc53e38	-0.02407752
63	0xbd593c74	-0.05303617
64	0xbc2abb40	-0.01042062
65	0xbde56756	-0.112013504
66	0xbe79b08a	-0.2438375
67	0xbe253ea9	-0.16137184
68	0xbe18d143	-0.14923577
69	0xbe2e53a1	-0.1702409
70	0xbdb302fa	-0.08740802
71	0xbd142120	-0.036164403
72	0xbe0a6351	-0.13514449
73	0xbe12b4b9	-0.14326753
74	0xbe12e80c	-0.14346331
75	0x3dc27288	0.09494501
76	0x3c5c66c6	0.0134522375
77	0xbdcc794f	-0.09984075
78	0xbe12fff5	-0.14355452
79	0x3e603227	0.21894132
80	0x3c8df186	0.017327081
81	0xbc82e810	-0.015979797
82	0x3dd9630a	0.10614593
83	0x3ddc86d5	0.10767905
84	0xbc9a474b	-0.018832823
85	0xbe49eeb0	-0.19719958
86	0x3e427391	0.18989398
87	0x3c24d49d	0.010060457
88	0x3e3f5b06	0.18687066
89	0x3e38cde4	0.18047291
90	0x3d4499ef	0.047998365
91	0x3e9400f8	0.2890699
92	0x3e34d83a	0.17660609
93	0x3df7a257	0.12091511
94	0x3e48ed4f	0.19621776
95	0x3df5cb7a	0.12001701
96	0xbdefd137	-0.117098264
97	0x3cd11722	0.025523726
98	0x3da35961	0.07976032
99	0xbc24010c	-0.010010015
100	0xbe034e50	-0.12822843
101	0x3cce2b0e	0.025167014
102	0x3d63150a	0.055439986
103	0x3ca147f5	0.019687632
104	0x3dd9eedd	0.10641263
105	0x3e943860	0.2894926
106	0x3e61ed51	0.22063185
107	0xbdc6ce05	-0.09707264
108	0xbe247b09	-0.16062559
109	0xbe50d275	-0.20392783
110	0xbe638ace	-0.22220919
111	0xbe93756b	-0.2880052
112	0xbd2e6230	-0.042574108
113	0x3dbde425	0.09272031
114	0x3c7b6ed1	0.015346245
115	0x3c4ac9f3	0.01237725
116	0xbd85b677	-0.06528943
117	0xba877bdd	-0.0010336597
118	0x3e9ea0a6	0.3098194
119	0x3c715412	0.014729517
120	0x3da686c8	0.08131176
121	0x3e68259d	0.22670598
122	0xbcf5b11e	-0.029991683
123	0xbc8efeea	-0.017455537
124	0x3cbe2ec4	0.023215659
125	0xbded4593	-0.11585536
126	0x3db53cb3	0.08849468
127	0xbde5c790	-0.11219704
128	0xbe9b4386	-0.30324954
129	0xbd23be24	-0.039976254
130	0x3e81b4bc	0.25333202
131	0xbd2400c1	-0.04003978
132	0xbdde823e	-0.108646855
133	0x3e89da85	0.2692453
134	0x3e490271	0.19629838
135	0x3e8f8373	0.28029975
136	0xbe3ccd1a	-0.18437615
137	0x3e5e9c08	0.21739209
138	0x3e9d2c51	0.30697873
139	0x3de24e40	0.11050081
140	0xbe547555	-0.20747884
141	0x3d1812b5	0.037127215
142	0xbd0e392e	-0.0347225
143	0x3c977bd6	0.018491667
144	0x3e2fd802	0.17172244
145	0x3e3c9574	0.18416387
146	0x3e88c549	0.26713017
147	0x3e993e91	0.29930547
148	0x3d22c070	0.039734304
149	0xbd0f8f5f	-0.03504884
150	0x3e2cbdfd	0.1686935
151	0xbe04cbe6	-0.12968406
152	0xbd153ed0	-0.036436856
153	0x3e1bba05	0.1520768
154	0x3d910e33	0.070827864
155	0x3df91877	0.121628694
156	0x3e2d8362	0.1694465
157	0x3e2de73b	0.16982739
158	0xbe64d45d	-0.22346635
159	0xbe3971c1	-0.181098
160	0xbe2a6013	-0.16638212
161	0x3df42762	0.11921574
162	0x3d335d5a	0.0437902
163	0xbde71e31	-0.112850554
164	0x3e52cfc2	0.20587066
165	0x3e64758b	0.22310464
166	0xbd4c3edd	-0.04986464
167	0xbd55ebcb	-0.052226823
168	0x3d725e98	0.059172243
169	0xbdb39507	-0.08768659
170	0x3e3690b6	0.1782864
171	0xbdac1dd5	-0.084041275
172	0x3dcd64ec	0.10029015
173	0xbd145c1e	-0.036220662
174	0x3d4fb899	0.050713155
175	0x3d1a641a	0.03769312
176	0x3e822dce	0.2542557
177	0xbe09d0f4	-0.13458616
178	0x3df23821	0.11827112
179	0xbda275dd	-0.07932637
180	0x3d1271ce	0.035753064
181	0xbe4009e6	-0.18753776
182	0x3cf7472b	0.030185303
183	0x3e5ca6d1	0.2154801
184	0x3d830db7	0.063991
185	0xbdbdbc84	-0.09264472
186	0xbe9c9832	-0.30584866
187	0xbc9a0d6e	-0.018805232
188	0xbd59f546	-0.053212427
189	0x3ce5f286	0.028069746
190	0x3e47f23b	0.19525997
191	0x3e939ec6	0.28832072
192	0x3e16df0f	0.14733528
193	0x3c089977	0.00833737
194	0x3dc8e225	0.09808759
195	0x3dc7d93a	0.097582296
196	0xbdcc5f55	-0.09979121
197	0x3e9878eb	0.29779753
198	0xbc9922d3	-0.018693363
199	0x3e1e929f	0.15485619
200	0xbe01fc53	-0.1269391
201	0xbdf178e4	-0.11790636
202	0xbe5c0440	-0.21485996
203	0xbe86401e	-0.26220793
204	0x3e10baa9	0.14133705
205	0x3e34fded	0.1767499
206	0xbe26dcd7	-0.16295181
207	0x3e849500	0.25894928
208	0x3d54f535	0.05199166
209	0xbd71e395	-0.05905493
210	0x3adec096	0.0016994651
211	0xbdf08be1	-0.1174543
212	0x3dd54026	0.10412626
213	0xbca92e28	-0.020651892
214	0x3df2e906	0.11860852
215	0x3d0606f9	0.032721493
216	0xbe84b103	-0.259163
217	0xbdb8eb4c	-0.09029254
218	0xbda45659	-0.08024282
219	0xbd3840a9	-0.04498354
220	0x3e7ff111	0.24994303
221	0x3df8021a	0.12109776
222	0xbda3a351	-0.079901345
223	0xbdd1abe3	-0.10237863
224	0xbdba5c64	-0.09099653
225	0xbe6f5ac5	-0.2337447
226	0x3ce38bbc	0.027776591
227	0x3bdd32c6	0.0067504374
228	0x3bde8eae	0.006791911
229	0x3e30baaf	0.17258714
230	0xbe1b31a2	-0.15155652
231	0x3d588b89	0.052867446
232	0x3e45dc9a	0.19322434
233	0x3e7d8738	0.24758613
234	0x3d4d2fee	0.050094537
235	0xbe604f30	-0.21905208
236	0x3e09a2c6	0.13441
237	0x3df4ae00	0.1194725
238	0x3e4545f3	0.19264965
239	0x3b93d70a	0.0045117186
240	0xbe270c95	-0.16313393
241	0xbe822cc9	-0.25424793
242	0x3dafca83	0.08583548
243	0x3dc78024	0.09741238
244	0xbd7ab7bc	-0.06121038
245	0x3d451abb	0.048121195
246	0x3e2e6aee	0.17032978
247	0xbde42860	-0.111405134
248	0xbdfa98d9	-0.122361846
249	0xbd845fc8	-0.06463581
250	0xbe6586b9	-0.22414674
251	0x3e4161bd	0.1888494
252	0x3ce5cd99	0.028052138
253	0xbe72f096	-0.23724589
254	0xbe67f298	-0.22651136
255	0xbdf24d2c	-0.118311256

0.bias f4 [128]
0	0x3d473539	0.04863474
1	0x3cd3a7cc	0.025836848
2	0x3e3819ea	0.17978635
3	0xbe42aa2a	-0.19010225
4	0x3dcc7258	0.09982747
5	0x3c8197a5	0.01581938
6	0x3e929548	0.28629518
7	0x3e04ec7d	0.12980838
8	0x3e999003	0.29992685
9	0xbd7b870c	-0.061408088
10	0xbe8a065a	-0.2695797
11	0xbd66c0cb	-0.056336205
12	0xbe0c635d	-0.13709779
13	0x3e4a29d8	0.19742525
14	0x3d9fc49b	0.078011714
15	0xbe84b75c	-0.25921142
16	0xbda86e7f	-0.082242005
17	0x3e42352e	0.18965599
18	0x3d1a033a	0.037600733
19	0x3e6573ff	0.2240753
20	0x3e54513f	0.20734118
21	0xbe5fff2e	-0.21874687
22	0xbe2cf828	-0.16891539
23	0x3dde6a9e	0.10860179
24	0x3ea81cbf	0.32834432
25	0x3e0d993c	0.13827986
26	0x3e648fd2	0.22320488
27	0xbdf0fb0c	-0.117666334
28	0xbe32802d	-0.17431708
29	0x3e52151e	0.20515868
30	0x3decdb7a	0.11565299
31	0x3e8f4445	0.27981773
32	0x3e6f137f	0.23347281
33	0x3cb67dcf	0.022276787
34	0x3df21570	0.11820495
35	0x3dcbbd5e	0.09948228
36	0xbdff538a	-0.12467106
37	0x3d5cabf0	0.05387491
38	0x3ea6d237	0.32582256
39	0xbbccd0eb	-0.006250491
40	0x3e58701e	0.2113652
41	0x3e0ba416	0.13636813
42	0x3e0a870e	0.13528082
43	0xbd36736e	-0.044543676
44	0x3e84fd13	0.2597433
45	0x3ca3a200	0.019974709
46	0x3e67a681	0.2262211
47	0xbe4501a4	-0.19238907
48	0x3e2d5bf8	0.16929615
49	0x3d58bbca	0.052913465
50	0x3cf69a97	0.030103011
51	0xbcb02c50	-0.021505505
52	0x3e2fc340	0.17164326
53	0x3c055506	0.008137947
54	0x3da3737c	0.07981011
55	0x3dbd370b	0.09239014
56	0x3e32d67e	0.17464635
57	0xbdca89cf	-0.09889566
58	0x3e1ca509	0.15297331
59	0xbe1ef4e8	-0.15523112
60	0x3cbd98b4	0.023144104
61	0xbe13348e	-0.14375517
62	0x3ea2ff56	0.3183543
63	0xbd71e906	-0.05906012
64	0x3e692b63	0.22770457
65	0xbcf616d0	-0.030040175
66	0x3e4bc013	0.19897489
67	0xbe54dbee	-0.20787022
68	0x3ddcca6e	0.10780798
69	0xbe14e043	-0.14538674
70	0xbe270ca5	-0.16313417
71	0xbe00746a	-0.12544408
72	0xbcd93557	-0.026514692
73	0xbe0bd1ed	-0.13654299
74	0x3e919986	0.28437442
75	0xbba94a07	-0.0051662955
76	0xbdd1d6c8	-0.102460444
77	0xbc4170b2	-0.011806654
78	0xbccd8d5f	-0.025091825
79	0x3e362592	0.1778777
80	0xbe0b8cee	-0.13627979
81	0x3e338a88	0.17533314
82	0xbe61d01f	-0.22052048
83	0xbd8b7517	-0.068094425
84	0x3d4594d0	0.04823762
85	0x3dbbb976	0.09166233
86	0xbdbe9c0a	-0.09307106
87	0xbe82dcf7	-0.25559208
88	0xbe5c3b19	-0.21506919
89	0xbe5a4dc9	-0.21318735
90	0xbdaab7e4	-0.083358556
91	0x3e76b74d	0.24093361
92	0xbe2e1b70	-0.17002654
93	0xbd318600	-0.043340683
94	0x3c38677c	0.011255141
95	0x3e7c14f1	0.24617364
96	0x3df9d0cb	0.12198027
97	0xbe44e640	-0.19228458
98	0x3e963d40	0.29343605
99	0x3ea4c279	0.3217962
100	0x3da0d9e2	0.07854058
101	0x3e9be105	0.30445114
102	0xbd51a0ce	-0.051178746
103	0xbd0a98f3	-0.03383727
104	0x3eaa9885	0.33319488
105	0x3e99fa20	0.30073643
106	0xbd164e74	-0.036695912
107	0x3e0d1c80	0.13780403
108	0xbddda5ee	-0.10822664
109	0x3c8bfe80	0.017089128
110	0x3d10ab71	0.03531975
111	0xbcfbb720	-0.03072697
112	0x3d3ea3b8	0.046542853
113	0xbdeaea91	-0.11470521
114	0x3c17a7ce	0.009256316
115	0x3e653a31	0.2238548
116	0xbe16d02a	-0.14727846
117	0x3dbd7a4c	0.09251842
118	0xbe07aba2	-0.13249066
119	0x3d83cdbc	0.06435725
120	0x3e180f3e	0.14849564
121	0xbe1fc205	-0.15601356
122	0x3e12df96	0.14343104
123	0xbc27fe48	-0.0102534965
124	0xbe027310	-0.12739205
125	0x3da1fcf1	0.07909573
126	0x3db2d35b	0.08731719
127	0x3d038869	0.032112513

2.weight f4 [128, 128]
0	0x3b48f82c	0.00306655
1	0x3df95b00	0.1217556
2	0x3df18aad	0.117940284
3	0x3d9bb56b	0.07602962
4	0x3baf8e80	0.0053575635
5	0x3dc8dd48	0.09807831
6	0x3e043d19	0.12913932
7	0x3d6d3cb0	0.057919204
8	0x3d84b147	0.064791255
9	0xbc3262de	-0.01088783
10	0xbd10afe4	-0.035323992
11	0x3e047bf8	0.12937915
12	0x3e14d861	0.14535667
13	0x3d473c90	0.04864174
14	0x3df00237	0.117191724
15	0xbd4095ef	-0.047017988
16	0x3cb4d403	0.022073751
17	0x3d54dede	0.051970355
18	0x3de90d86	0.113795325
19	0x3da19653	0.0789
20	0x3e0a6fff	0.13519286
21	0xbd891e29	-0.06695206
22	0x3deef880	0.11668491
23	0xbbfa866f	-0.0076454203
24	0x3ca67562	0.020319644
25	0x3da86e87	0.082242064
26	0x3d66ef00	0.056380272
27	0xbb6f2d34	-0.003649545
28	0xbd62651d	-0.05527221
29	0xbdf9467a	-0.121716455
30	0xbbc581a7	-0.0060274187
31	0x3de22b90	0.11043465
32	0x3d4416c8	0.04787329
33	0xbac35bb4	-0.0014904649
34	0x3da92c23	0.082603715
35	0x3d075ed8	0.033049434
36	0x3e0bd94c	0.13657111
37	0x3d88d4ee	0.06681238
38	0x3d9c1db1	0.07622851
39	0x3cc6d6ca	0.024272341
40	0x3d5ac33c	0.053408846
41	0x3d8b3012	0.06796278
42	0x3bd5105e	0.0065021953
43	0x3ded4fd1	0.115874894
44	0x3e1caf80	0.15301323
45	0xbda8d44a	-0.08243616
46	0x3d2798c5	0.040917177
47	0xbcb3dbc2	-0.021955375
48	0x3d73b16a	0.059495367
49	0x3d58d81c	0.052940473
50	0x3de26469	0.11054308
51	0xbcdcf1c8	-0.026970759
52	0x3e172e84	0.14763838
53	0x3d553656	0.052053772
54	0xbd8afc0b	-0.06786355
55	0x3d89d0bd	0.06729267
56	0xbc896a7c	-0.016774409
57	0x3e04a7a8	0.12954581
58	0xbd009393	-0.031390738
59	0xbbbe7301	-0.0058120494
60	0x3d9c1751	0.07621635
61	0xbd40eaea	-0.04709903
62	0x3db48829	0.08815033
63	0x3ce59c9e	0.028028782
64	0x3d8ca037	0.06866496
65	0x3df5c77d	0.1200094
66	0x3dda897f	0.106707565
67	0x3cb5f8f0	0.02221343
68	0x3e134323	0.1438108
69	0x3db00706	0.085950896
70	0x3e0d9a0c	0.13828295
71	0x3e012f0b	0.12615602
72	0x3de46175	0.11151401
73	0x3cde88cd	0.027164841
74	0x3caf42c7	0.021394147
75	0x3d23a2b6	0.039950095
76	0xbc920e2a	-0.01782902
77	0x3d86d5ca	0.06583746
78	0x3df50f1b	0.11965772
79	0x3dde1d8e	0.10845481
80	0x3d7738ee	0.060357027
81	0x3ddee197	0.108828716
82	0xbd6d64dd	-0.05795752
83	0x3dd46dd7	0.10372513
84	0x3d2a4095	0.041565496
85	0xbb39b6c7	-0.0028337704
86	0x3dce5fb2	0.10076846
87	0xbcb76a18	-0.022389457
88	0xbd4b6939	-0.049660895
89	0xbc1456a8	-0.009053864
90	0x3db03e37	0.086056165
91	0x3d67e4d7	0.056614723
92	0xbc8b40d4	-0.016998686
93	0xbd5d5754	-0.05403836
94	0xbe079645	-0.13240917
95	0x3e159a8a	0.14609733
96	0x3d9f8836	0.07789652
97	0xbd04db73	-0.032435846
98	0xbca3105f	-0.019905267
99	0xbc2aa9d8	-0.0104164705
100	0x3d749157	0.05970892
101	0xbabc0750	-0.0014345441
102	0xbb8e5f64	-0.0043448675
103	0x3d0e624c	0.034761712
104	0x3d96b8dc	0.07359478
105	0x3e2254c3	0.15852647
106	0x3d8c0325	0.06836537
107	0x3c139be7	0.009009338
108	0xbd71a2d6	-0.058993183
109	0x3caf819c	0.021424107
110	0x3db47487	0.08811288
111	0x3cf4fa96	0.029904645
112	0xbcf91e72	-0.030410025
113	0x3df2adc9	0.11849553
114	0x3da1eae7	0.07906132
115	0xbb850fab	-0.0040607057
116	0x3cf9a54c	0.030474328
117	0xbd3155ae	-0.0432946
118	0x3e242985	0.16031463
119	0x3d2917e3	0.041282546
120	0x3c9d8f2d	0.01923331
121	0x3cadc512	0.021212135
122	0x3d70c84f	0.05878478
123	0x3e04eefd	0.12981792
124	0x3cb726e1	0.022357406
125	0x3de5c8bf	0.1121993
126	0x3ce0f8c9	0.02746238
127	0x3d8a8b30	0.06764829
128	0x3d87be13	0.06628051
129	0x3d46ef8b	0.04856829
130	0x3dedec35	0.116173185
131	0x3d8f7abb	0.07005831
132	0x3ca5f3cc	0.020257853
133	0xbd317502	-0.043324478
134	0x3d2dc246	0.0424216
135	0x3dceae10	0.100917935
136	0x3c72d2c1	0.014820755
137	0xbcaebd50	-0.021330506
138	0x3ca34f40	0.01993525
139	0xbd580ea4	-0.052748337
140	0x3db91688	0.090375006
141	0x3d97ed88	0.07418352
142	0x3d786b04	0.060648933
143	0x3d198faf	0.037490543
144	0xbd35c9f5	-0.044382054
145	0x3baeac70	0.0053306147
146	0x3deb319f	0.11484074
147	0x3da86371	0.08222092
148	0x3e040390	0.12891984
149	0xbd6d804a	-0.057983674
150	0xbcd897ff	-0.026439665
151	0xbcc04816	-0.023471873
152	0x3dc73fd3	0.097289704
153	0x3d7a1cbc	0.06106256
154	0x3e07db64	0.13267285
155	0x3decda1b	0.11565038
156	0x3d5653be	0.052325957
157	0xbca5b012	-0.020225558
158	0xbc14faf7	-0.009093038
159	0x3cd14c4a	0.025549073
160	0x3da2b168	0.07943994
161	0x3dfb7444	0.12278035
162	0x3dc4d93a	0.09611745
163	0x3d793054	0.060837105
164	0x3dd67ed3	0.104734086
165	0xba8533bb	-0.0010162512
166	0x3da961aa	0.08270581
167	0xbd310768	-0.043219954
168	0x3d30b51a	0.043141462
169	0x3e110ed9	0.1416582
170	0x3dbe46e3	0.09290864
171	0x3d8b99e3	0.06816461
172	0x3e0762bc	0.13221258
173	0x3cd27f48	0.025695458
174	0x3de5cee8	0.11221105
175	0x3d41b7a7	0.047294285
176	0x3e046e78	0.12932765
177	0x3d95efe2	0.07321145
178	0x3dad05f0	0.08448398
179	0x3d09fbb8	0.033687323
180	0x3d41677e	0.04721784
181	0x3ddcefa9	0.10787899
182	0xbdb2e3f5	-0.087348856
183	0xbaf81989	-0.0018928509
184	0x3dccd121	0.10000826
185	0x3da8c55c	0.08240768
186	0x3d01230e	0.03152757
187	0x3e0fb8e6	0.14035377
188	0x3d23836e	0.039920263
189	0xbd1970f5	-0.03746124
190	0x3d01f9da	0.031732418
191	0xbb8adce8	-0.00423776
192	0x3b932718	0.0044907443
193	0x3c408f5e	0.011752931
194	0x3dc56f93	0.09640422
195	0xbc62605d	-0.01381692
196	0x3b232e37	0.0024899372
197	0x3e0ae2bf	0.1356306
198	0x3d9ec1d5	0.07751814
199	0x3d25805f	0.040405627
200	0x3d82598c	0.06364736
201	0x3d5321ce	0.05154591
202	0x3d4526e7	0.048132803
203	0x3d0d925b	0.034563404
204	0x3d1863bd	0.037204493
205	0x3d0a3265	0.033739466
206	0x3e09d7da	0.13461247
207	0xbce7b568	-0.028284743
208	0x3deee18a	0.11664112
209	0x3c6ba4e9	0.014382579
210	0x3a070e7e	0.0005152001
211	0x3dce1272	0.10062112
212	0xbb2a12e0	-0.0025951192
213	0x3df17a64	0.11790922
214	0x3d82cf95	0.063872494
215	0x3d08a5e0	0.033361316
216	0xbc724e60	-0.014789194
217	0xbbae95ac	-0.005327901
218	0xbd011cbf	-0.031521555
219	0x3e00752d	0.12544699
220	0x3d8fc573	0.07020082
221	0xbd411aa1	-0.047144536
222	0xbba941bc	-0.005165307
223	0x3d84476e	0.06458937
224	0x3e1c01d0	0.15235066
225	0x3c9b8b90	0.018987447
226	0x3daf143f	0.085487835
227	0xbcb51af3	-0.022107577
228	0x3dde6865	0.108597554
229	0x3cf72b0b	0.030171892
230	0x3da51cac	0.08062109
231	0x3d6449a1	0.05573428
232	0x3c3c7e7f	0.011504768
233	0x3db3fe6a	0.0878876
234	0xbc519e29	-0.012794056
235	0x3e14627f	0.14490698
236	0xbd955245	-0.07291082
237	0xbcecbd76	-0.028898936
238	0x3dff8767	0.12476998
239	0x3c974290	0.018464357
240	0xbc607990	-0.013700858
241	0x3d52cc6c	0.051464483
242	0x3ceed975	0.029156426
243	0x3d88e018	0.066833675
244	0xbce05824	-0.027385779
245	0x3d978497	0.073983364
246	0x3db838a5	0.08995179
247	0x3e21c3a8	0.15797293
248	0x3d4aad36	0.049481593
249	0x3dcf3356	0.101172134
250	0xbcd556d4	-0.02604238
251	0x3d93f592	0.07224573
252	0x3d42c4db	0.047551017
253	0xbaf37255	-0.0018573502
254	0x3d8ceaaa	0.06880696
255	0x3e0fbf06	0.14037713

2.bias f4 [128]
0	0x3de22da7	0.11043864
1	0x3d9e606f	0.07733237
2	0xbda20925	-0.079119004
3	0x3e0a3a4d	0.13498802
4	0xbd8a352a	-0.067484215
5	0x3cdad860	0.026714504
6	0x3c49df5f	0.012321322
7	0x3da4c4b9	0.08045334
8	0xbc31b394	-0.010846037
9	0xbdabba68	-0.083851635
10	0x3bdff8c0	0.006835073
11	0xbd010cb4	-0.031506255
12	0xbdcb1e3b	-0.099178754
13	0xbc0154ff	-0.0078938
14	0x3df0d48a	0.117592886
15	0xbd2497b0	-0.040183723
16	0xbda11d1b	-0.078668796
17	0xbcbdd63f	-0.02317345
18	0x3d8d6067	0.06903153
19	0xbbc2b092	-0.005941459
20	0x3d35dbe3	0.044399153
21	0x3d72645b	0.059177738
22	0x3d45f380	0.048327923
23	0x3dea92da	0.11453791
24	0xbd36bb5f	-0.044612285
25	0xbd8e73e8	-0.06955701
26	0x3cfbabcb	0.030721566
27	0x3d0642e7	0.032778647
28	0x3d23b909	0.039971385
29	0x3bcdb160	0.0062772483
30	0xbd4cdd5b	-0.05001579
31	0x3dda4333	0.106573485
32	0x3d2f5d14	0.042813376
33	0x3c305e89	0.010764726
34	0xbcf0a097	-0.02937345
35	0xbca0df8a	-0.019637842
36	0x3d4d7e9f	0.050169583
37	0x3deb1513	0.11478629
38	0xbd5ad24f	-0.053423222
39	0xbd376897	-0.04477748
40	0x3d773e17	0.060361948
41	0x3cc7d99b	0.024395755
42	0x3ca35a41	0.019940497
43	0xbd693a3a	-0.056940295
44	0x3d811f8f	0.063048474
45	0x3cd27f7b	0.025695553
46	0x3c07ac30	0.008280799
47	0xbd673c3f	-0.05645394
48	0x3d85bbd7	0.06529968
49	0x3c70906a	0.0146828685
50	0x3de6f659	0.11277456
51	0xbdb5ca3e	-0.08876465
52	0xbd8025b7	-0.062571935
53	0xbd9aab8e	-0.07552253
54	0xbc849904	-0.016186245
55	0x3d04de55	0.032438595
56	0x3cc27925	0.023739407
57	0x3bc582a2	0.0060275355
58	0x3e0a8f97	0.13531338
59	0xbd25fa0f	-0.040521678
60	0x3dd29240	0.10281801
61	0xbc6c698e	-0.014429463
62	0x3d408e9a	0.047010995
63	0xbd6ae75a	-0.05734954
64	0x3ba7f3c6	0.0051254956
65	0x3d896404	0.067085296
66	0xbdad51e3	-0.08462884
67	0xbd73e4fa	-0.05954454
68	0x3a83cec6	0.001005613
69	0xbcd5dc25	-0.02610595
70	0xbd099e4d	-0.033598233
71	0x3d17d65d	0.037069667
72	0x3d91ff36	0.07128756
73	0xbd08d721	-0.033408288
74	0xbdc1deff	-0.09466361
75	0x3daaef2a	0.08346398
76	0xbd9bdfa6	-0.07611017
77	0x3d00ed8b	0.03147654
78	0xbd5452a5	-0.05183663
79	0x3e0d461e	0.13796279
80	0xbd5b8229	-0.053590927
81	0x3c15c2af	0.0091406545
82	0x3c4d618a	0.012535462
83	0x3e01a478	0.12660396
84	0x3ca71574	0.020395972
85	0x3e1354a5	0.14387758
86	0x3e186d46	0.14885435
87	0xbcd7bfd1	-0.026336582
88	0x3d8a2dd2	0.06747021
89	0x3c28ffea	0.010314921
90	0xbc941e16	-0.018080752
91	0x3e03b82c	0.12863225
92	0xbd6247ab	-0.05524413
93	0x3d5a5374	0.053302243
94	0xbba22c3c	-0.004949121
95	0x3dac6870	0.08418357
96	0x3d6bf847	0.057609823
97	0xbb52048e	-0.0032046172
98	0x3be8ea97	0.0071080434
99	0x3dc65d3e	0.09685753
100	0x3ceac793	0.028659618
101	0x3c2ffccc	0.010741424
102	0xbd519f98	-0.05117759
103	0x3bb53663	0.005530165
104	0xba814785	-0.0009863233
105	0x3d35fa09	0.044427905
106	0x3de483c8	0.11157948
107	0x3e050ca1	0.12993099
108	0x3e04f11c	0.12982601
109	0x3def23b2	0.1167673
110	0xbda84629	-0.08216507
111	0x3d7007ad	0.05860107
112	0xbbcedc21	-0.0063128625
113	0xbd560180	-0.052247524
114	0x3c827455	0.015924612
115	0xbb8bae0c	-0.0042626914
116	0x3dd90a6a	0.105976894
117	0x3ccc4b97	0.024938388
118	0x3d94dcc2	0.07268669
119	0x3d411404	0.04713823
120	0xbd25d638	-0.040487498
121	0xbcf9234c	-0.030412339
122	0x3cd05a87	0.025433792
123	0x3d687339	0.05675051
124	0xbd7558dc	-0.059899196
125	0x3dbbf3b9	0.09177346
126	0x3ddd518e	0.10806571
127	0xbd8ea526	-0.06965093
